{"format": "graph-model", "generatedBy": "2.7.0", "convertedBy": "TensorFlow.js Converter v3.13.0", "signature": {"inputs": {"content:0": {"name": "content:0", "dtype": "DT_FLOAT", "tensorShape": {"dim": [{"size": "-1"}, {"size": "-1"}, {"size": "3"}]}}, "iters:0": {"name": "iters:0", "dtype": "DT_INT32", "tensorShape": {}}, "max_resolution:0": {"name": "max_resolution:0", "dtype": "DT_INT32", "tensorShape": {}}, "style:0": {"name": "style:0", "dtype": "DT_FLOAT", "tensorShape": {"dim": [{"size": "-1"}, {"size": "-1"}, {"size": "3"}]}}}, "outputs": {"result": {"name": "Identity:0", "dtype": "DT_FLOAT", "tensorShape": {"dim": [{"size": "-1"}, {"size": "-1"}, {"size": "3"}]}}}}, "modelTopology": {"node": [{"name": "StatefulPartitionedCall/resize_3/strided_slice/stack", "op": "Const", "attr": {"value": {"tensor": {"dtype": "DT_INT32", "tensorShape": {"dim": [{"size": "1"}]}}}, "dtype": {"type": "DT_INT32"}}}, {"name": "StatefulPartitionedCall/resize_3/strided_slice/stack_1", "op": "Const", "attr": {"value": {"tensor": {"dtype": "DT_INT32", "tensorShape": {"dim": [{"size": "1"}]}}}, "dtype": {"type": "DT_INT32"}}}, {"name": "StatefulPartitionedCall/resize_3/strided_slice/stack_2", "op": "Const", "attr": {"value": {"tensor": {"dtype": "DT_INT32", "tensorShape": {"dim": [{"size": "1"}]}}}, "dtype": {"type": "DT_INT32"}}}, {"name": "StatefulPartitionedCall/strided_slice/stack", "op": "Const", "attr": {"value": {"tensor": {"dtype": "DT_INT32", "tensorShape": {"dim": [{"size": "1"}]}}}, "dtype": {"type": "DT_INT32"}}}, {"name": "StatefulPartitionedCall/strided_slice/stack_1", "op": "Const", "attr": {"value": {"tensor": {"dtype": "DT_INT32", "tensorShape": {"dim": [{"size": "1"}]}}}, "dtype": {"type": "DT_INT32"}}}, {"name": "StatefulPartitionedCall/strided_slice/stack_2", "op": "Const", "attr": {"value": {"tensor": {"dtype": "DT_INT32", "tensorShape": {"dim": [{"size": "1"}]}}}, "dtype": {"type": "DT_INT32"}}}, {"name": "StatefulPartitionedCall/resize_3/strided_slice_1/stack", "op": "Const", "attr": {"value": {"tensor": {"dtype": "DT_INT32", "tensorShape": {"dim": [{"size": "1"}]}}}, "dtype": {"type": "DT_INT32"}}}, {"name": "StatefulPartitionedCall/resize_3/strided_slice_1/stack_1", "op": "Const", "attr": {"value": {"tensor": {"dtype": "DT_INT32", "tensorShape": {"dim": [{"size": "1"}]}}}, "dtype": {"type": "DT_INT32"}}}, {"name": "StatefulPartitionedCall/resize_3/strided_slice_1/stack_2", "op": "Const", "attr": {"value": {"tensor": {"dtype": "DT_INT32", "tensorShape": {"dim": [{"size": "1"}]}}}, "dtype": {"type": "DT_INT32"}}}, {"name": "StatefulPartitionedCall/transpose/perm", "op": "Const", "attr": {"value": {"tensor": {"dtype": "DT_INT32", "tensorShape": {"dim": [{"size": "3"}]}}}, "dtype": {"type": "DT_INT32"}}}, {"name": "StatefulPartitionedCall/strided_slice_3/stack", "op": "Const", "attr": {"value": {"tensor": {"dtype": "DT_INT32", "tensorShape": {"dim": [{"size": "2"}]}}}, "dtype": {"type": "DT_INT32"}}}, {"name": "StatefulPartitionedCall/strided_slice_3/stack_1", "op": "Const", "attr": {"value": {"tensor": {"dtype": "DT_INT32", "tensorShape": {"dim": [{"size": "2"}]}}}, "dtype": {"type": "DT_INT32"}}}, {"name": "StatefulPartitionedCall/strided_slice_3/stack_2", "op": "Const", "attr": {"value": {"tensor": {"dtype": "DT_INT32", "tensorShape": {"dim": [{"size": "2"}]}}}, "dtype": {"type": "DT_INT32"}}}, {"name": "unknown_31", "op": "Const", "attr": {"value": {"tensor": {"dtype": "DT_FLOAT", "tensorShape": {"dim": [{"size": "512"}, {"size": "512"}, {"size": "1"}, {"size": "1"}]}}}, "dtype": {"type": "DT_FLOAT"}}}, {"name": "unknown_32", "op": "Const", "attr": {"value": {"tensor": {"dtype": "DT_FLOAT", "tensorShape": {"dim": [{"size": "512"}]}}}, "dtype": {"type": "DT_FLOAT"}}}, {"name": "unknown_27", "op": "Const", "attr": {"value": {"tensor": {"dtype": "DT_FLOAT", "tensorShape": {"dim": [{"size": "512"}, {"size": "512"}, {"size": "1"}, {"size": "1"}]}}}, "dtype": {"type": "DT_FLOAT"}}}, {"name": "unknown_28", "op": "Const", "attr": {"value": {"tensor": {"dtype": "DT_FLOAT", "tensorShape": {"dim": [{"size": "512"}]}}}, "dtype": {"type": "DT_FLOAT"}}}, {"name": "unknown_29", "op": "Const", "attr": {"value": {"tensor": {"dtype": "DT_FLOAT", "tensorShape": {"dim": [{"size": "512"}, {"size": "512"}, {"size": "1"}, {"size": "1"}]}}}, "dtype": {"type": "DT_FLOAT"}}}, {"name": "unknown_30", "op": "Const", "attr": {"value": {"tensor": {"dtype": "DT_FLOAT", "tensorShape": {"dim": [{"size": "512"}]}}}, "dtype": {"type": "DT_FLOAT"}}}, {"name": "unknown_33", "op": "Const", "attr": {"value": {"tensor": {"dtype": "DT_FLOAT", "tensorShape": {"dim": [{"size": "512"}, {"size": "512"}, {"size": "1"}, {"size": "1"}]}}}, "dtype": {"type": "DT_FLOAT"}}}, {"name": "unknown_34", "op": "Const", "attr": {"value": {"tensor": {"dtype": "DT_FLOAT", "tensorShape": {"dim": [{"size": "512"}]}}}, "dtype": {"type": "DT_FLOAT"}}}, {"name": "unknown_39", "op": "Const", "attr": {"value": {"tensor": {"dtype": "DT_FLOAT", "tensorShape": {"dim": [{"size": "512"}, {"size": "512"}, {"size": "1"}, {"size": "1"}]}}}, "dtype": {"type": "DT_FLOAT"}}}, {"name": "unknown_40", "op": "Const", "attr": {"value": {"tensor": {"dtype": "DT_FLOAT", "tensorShape": {"dim": [{"size": "512"}]}}}, "dtype": {"type": "DT_FLOAT"}}}, {"name": "unknown_35", "op": "Const", "attr": {"value": {"tensor": {"dtype": "DT_FLOAT", "tensorShape": {"dim": [{"size": "512"}, {"size": "512"}, {"size": "1"}, {"size": "1"}]}}}, "dtype": {"type": "DT_FLOAT"}}}, {"name": "unknown_36", "op": "Const", "attr": {"value": {"tensor": {"dtype": "DT_FLOAT", "tensorShape": {"dim": [{"size": "512"}]}}}, "dtype": {"type": "DT_FLOAT"}}}, {"name": "StatefulPartitionedCall/transpose_1/perm", "op": "Const", "attr": {"value": {"tensor": {"dtype": "DT_INT32", "tensorShape": {"dim": [{"size": "3"}]}}}, "dtype": {"type": "DT_INT32"}}}, {"name": "StatefulPartitionedCall/strided_slice_4/stack", "op": "Const", "attr": {"value": {"tensor": {"dtype": "DT_INT32", "tensorShape": {"dim": [{"size": "2"}]}}}, "dtype": {"type": "DT_INT32"}}}, {"name": "StatefulPartitionedCall/strided_slice_4/stack_1", "op": "Const", "attr": {"value": {"tensor": {"dtype": "DT_INT32", "tensorShape": {"dim": [{"size": "2"}]}}}, "dtype": {"type": "DT_INT32"}}}, {"name": "StatefulPartitionedCall/strided_slice_4/stack_2", "op": "Const", "attr": {"value": {"tensor": {"dtype": "DT_INT32", "tensorShape": {"dim": [{"size": "2"}]}}}, "dtype": {"type": "DT_INT32"}}}, {"name": "unknown_37", "op": "Const", "attr": {"value": {"tensor": {"dtype": "DT_FLOAT", "tensorShape": {"dim": [{"size": "512"}, {"size": "512"}, {"size": "1"}, {"size": "1"}]}}}, "dtype": {"type": "DT_FLOAT"}}}, {"name": "unknown_38", "op": "Const", "attr": {"value": {"tensor": {"dtype": "DT_FLOAT", "tensorShape": {"dim": [{"size": "512"}]}}}, "dtype": {"type": "DT_FLOAT"}}}, {"name": "unknown_41", "op": "Const", "attr": {"value": {"tensor": {"dtype": "DT_FLOAT", "tensorShape": {"dim": [{"size": "512"}, {"size": "512"}, {"size": "1"}, {"size": "1"}]}}}, "dtype": {"type": "DT_FLOAT"}}}, {"name": "unknown_42", "op": "Const", "attr": {"value": {"tensor": {"dtype": "DT_FLOAT", "tensorShape": {"dim": [{"size": "512"}]}}}, "dtype": {"type": "DT_FLOAT"}}}, {"name": "unknown", "op": "Const", "attr": {"value": {"tensor": {"dtype": "DT_FLOAT", "tensorShape": {"dim": [{"size": "3"}, {"size": "3"}, {"size": "1"}, {"size": "1"}]}}}, "dtype": {"type": "DT_FLOAT"}}}, {"name": "unknown_0", "op": "Const", "attr": {"value": {"tensor": {"dtype": "DT_FLOAT", "tensorShape": {"dim": [{"size": "3"}]}}}, "dtype": {"type": "DT_FLOAT"}}}, {"name": "unknown_1", "op": "Const", "attr": {"value": {"tensor": {"dtype": "DT_FLOAT", "tensorShape": {"dim": [{"size": "64"}, {"size": "3"}, {"size": "3"}, {"size": "3"}]}}}, "dtype": {"type": "DT_FLOAT"}}}, {"name": "unknown_2", "op": "Const", "attr": {"value": {"tensor": {"dtype": "DT_FLOAT", "tensorShape": {"dim": [{"size": "64"}]}}}, "dtype": {"type": "DT_FLOAT"}}}, {"name": "unknown_3", "op": "Const", "attr": {"value": {"tensor": {"dtype": "DT_FLOAT", "tensorShape": {"dim": [{"size": "64"}, {"size": "64"}, {"size": "3"}, {"size": "3"}]}}}, "dtype": {"type": "DT_FLOAT"}}}, {"name": "unknown_4", "op": "Const", "attr": {"value": {"tensor": {"dtype": "DT_FLOAT", "tensorShape": {"dim": [{"size": "64"}]}}}, "dtype": {"type": "DT_FLOAT"}}}, {"name": "unknown_5", "op": "Const", "attr": {"value": {"tensor": {"dtype": "DT_FLOAT", "tensorShape": {"dim": [{"size": "128"}, {"size": "64"}, {"size": "3"}, {"size": "3"}]}}}, "dtype": {"type": "DT_FLOAT"}}}, {"name": "unknown_6", "op": "Const", "attr": {"value": {"tensor": {"dtype": "DT_FLOAT", "tensorShape": {"dim": [{"size": "128"}]}}}, "dtype": {"type": "DT_FLOAT"}}}, {"name": "unknown_7", "op": "Const", "attr": {"value": {"tensor": {"dtype": "DT_FLOAT", "tensorShape": {"dim": [{"size": "128"}, {"size": "128"}, {"size": "3"}, {"size": "3"}]}}}, "dtype": {"type": "DT_FLOAT"}}}, {"name": "unknown_8", "op": "Const", "attr": {"value": {"tensor": {"dtype": "DT_FLOAT", "tensorShape": {"dim": [{"size": "128"}]}}}, "dtype": {"type": "DT_FLOAT"}}}, {"name": "unknown_9", "op": "Const", "attr": {"value": {"tensor": {"dtype": "DT_FLOAT", "tensorShape": {"dim": [{"size": "256"}, {"size": "128"}, {"size": "3"}, {"size": "3"}]}}}, "dtype": {"type": "DT_FLOAT"}}}, {"name": "unknown_10", "op": "Const", "attr": {"value": {"tensor": {"dtype": "DT_FLOAT", "tensorShape": {"dim": [{"size": "256"}]}}}, "dtype": {"type": "DT_FLOAT"}}}, {"name": "unknown_11", "op": "Const", "attr": {"value": {"tensor": {"dtype": "DT_FLOAT", "tensorShape": {"dim": [{"size": "256"}, {"size": "256"}, {"size": "3"}, {"size": "3"}]}}}, "dtype": {"type": "DT_FLOAT"}}}, {"name": "unknown_12", "op": "Const", "attr": {"value": {"tensor": {"dtype": "DT_FLOAT", "tensorShape": {"dim": [{"size": "256"}]}}}, "dtype": {"type": "DT_FLOAT"}}}, {"name": "unknown_13", "op": "Const", "attr": {"value": {"tensor": {"dtype": "DT_FLOAT", "tensorShape": {"dim": [{"size": "256"}, {"size": "256"}, {"size": "3"}, {"size": "3"}]}}}, "dtype": {"type": "DT_FLOAT"}}}, {"name": "unknown_14", "op": "Const", "attr": {"value": {"tensor": {"dtype": "DT_FLOAT", "tensorShape": {"dim": [{"size": "256"}]}}}, "dtype": {"type": "DT_FLOAT"}}}, {"name": "unknown_15", "op": "Const", "attr": {"value": {"tensor": {"dtype": "DT_FLOAT", "tensorShape": {"dim": [{"size": "256"}, {"size": "256"}, {"size": "3"}, {"size": "3"}]}}}, "dtype": {"type": "DT_FLOAT"}}}, {"name": "unknown_16", "op": "Const", "attr": {"value": {"tensor": {"dtype": "DT_FLOAT", "tensorShape": {"dim": [{"size": "256"}]}}}, "dtype": {"type": "DT_FLOAT"}}}, {"name": "unknown_17", "op": "Const", "attr": {"value": {"tensor": {"dtype": "DT_FLOAT", "tensorShape": {"dim": [{"size": "512"}, {"size": "256"}, {"size": "3"}, {"size": "3"}]}}}, "dtype": {"type": "DT_FLOAT"}}}, {"name": "unknown_18", "op": "Const", "attr": {"value": {"tensor": {"dtype": "DT_FLOAT", "tensorShape": {"dim": [{"size": "512"}]}}}, "dtype": {"type": "DT_FLOAT"}}}, {"name": "unknown_19", "op": "Const", "attr": {"value": {"tensor": {"dtype": "DT_FLOAT", "tensorShape": {"dim": [{"size": "512"}, {"size": "512"}, {"size": "3"}, {"size": "3"}]}}}, "dtype": {"type": "DT_FLOAT"}}}, {"name": "unknown_20", "op": "Const", "attr": {"value": {"tensor": {"dtype": "DT_FLOAT", "tensorShape": {"dim": [{"size": "512"}]}}}, "dtype": {"type": "DT_FLOAT"}}}, {"name": "unknown_21", "op": "Const", "attr": {"value": {"tensor": {"dtype": "DT_FLOAT", "tensorShape": {"dim": [{"size": "512"}, {"size": "512"}, {"size": "3"}, {"size": "3"}]}}}, "dtype": {"type": "DT_FLOAT"}}}, {"name": "unknown_22", "op": "Const", "attr": {"value": {"tensor": {"dtype": "DT_FLOAT", "tensorShape": {"dim": [{"size": "512"}]}}}, "dtype": {"type": "DT_FLOAT"}}}, {"name": "unknown_23", "op": "Const", "attr": {"value": {"tensor": {"dtype": "DT_FLOAT", "tensorShape": {"dim": [{"size": "512"}, {"size": "512"}, {"size": "3"}, {"size": "3"}]}}}, "dtype": {"type": "DT_FLOAT"}}}, {"name": "unknown_24", "op": "Const", "attr": {"value": {"tensor": {"dtype": "DT_FLOAT", "tensorShape": {"dim": [{"size": "512"}]}}}, "dtype": {"type": "DT_FLOAT"}}}, {"name": "unknown_25", "op": "Const", "attr": {"value": {"tensor": {"dtype": "DT_FLOAT", "tensorShape": {"dim": [{"size": "512"}, {"size": "512"}, {"size": "3"}, {"size": "3"}]}}}, "dtype": {"type": "DT_FLOAT"}}}, {"name": "unknown_26", "op": "Const", "attr": {"value": {"tensor": {"dtype": "DT_FLOAT", "tensorShape": {"dim": [{"size": "512"}]}}}, "dtype": {"type": "DT_FLOAT"}}}, {"name": "unknown_43", "op": "Const", "attr": {"value": {"tensor": {"dtype": "DT_FLOAT", "tensorShape": {"dim": [{"size": "512"}, {"size": "512"}, {"size": "3"}, {"size": "3"}]}}}, "dtype": {"type": "DT_FLOAT"}}}, {"name": "unknown_44", "op": "Const", "attr": {"value": {"tensor": {"dtype": "DT_FLOAT", "tensorShape": {"dim": [{"size": "512"}]}}}, "dtype": {"type": "DT_FLOAT"}}}, {"name": "unknown_45", "op": "Const", "attr": {"value": {"tensor": {"dtype": "DT_FLOAT", "tensorShape": {"dim": [{"size": "256"}, {"size": "512"}, {"size": "3"}, {"size": "3"}]}}}, "dtype": {"type": "DT_FLOAT"}}}, {"name": "unknown_46", "op": "Const", "attr": {"value": {"tensor": {"dtype": "DT_FLOAT", "tensorShape": {"dim": [{"size": "256"}]}}}, "dtype": {"type": "DT_FLOAT"}}}, {"name": "unknown_47", "op": "Const", "attr": {"value": {"tensor": {"dtype": "DT_FLOAT", "tensorShape": {"dim": [{"size": "256"}, {"size": "256"}, {"size": "3"}, {"size": "3"}]}}}, "dtype": {"type": "DT_FLOAT"}}}, {"name": "unknown_48", "op": "Const", "attr": {"value": {"tensor": {"dtype": "DT_FLOAT", "tensorShape": {"dim": [{"size": "256"}]}}}, "dtype": {"type": "DT_FLOAT"}}}, {"name": "unknown_49", "op": "Const", "attr": {"value": {"tensor": {"dtype": "DT_FLOAT", "tensorShape": {"dim": [{"size": "256"}, {"size": "256"}, {"size": "3"}, {"size": "3"}]}}}, "dtype": {"type": "DT_FLOAT"}}}, {"name": "unknown_50", "op": "Const", "attr": {"value": {"tensor": {"dtype": "DT_FLOAT", "tensorShape": {"dim": [{"size": "256"}]}}}, "dtype": {"type": "DT_FLOAT"}}}, {"name": "unknown_51", "op": "Const", "attr": {"value": {"tensor": {"dtype": "DT_FLOAT", "tensorShape": {"dim": [{"size": "256"}, {"size": "256"}, {"size": "3"}, {"size": "3"}]}}}, "dtype": {"type": "DT_FLOAT"}}}, {"name": "unknown_52", "op": "Const", "attr": {"value": {"tensor": {"dtype": "DT_FLOAT", "tensorShape": {"dim": [{"size": "256"}]}}}, "dtype": {"type": "DT_FLOAT"}}}, {"name": "unknown_53", "op": "Const", "attr": {"value": {"tensor": {"dtype": "DT_FLOAT", "tensorShape": {"dim": [{"size": "128"}, {"size": "256"}, {"size": "3"}, {"size": "3"}]}}}, "dtype": {"type": "DT_FLOAT"}}}, {"name": "unknown_54", "op": "Const", "attr": {"value": {"tensor": {"dtype": "DT_FLOAT", "tensorShape": {"dim": [{"size": "128"}]}}}, "dtype": {"type": "DT_FLOAT"}}}, {"name": "unknown_55", "op": "Const", "attr": {"value": {"tensor": {"dtype": "DT_FLOAT", "tensorShape": {"dim": [{"size": "128"}, {"size": "128"}, {"size": "3"}, {"size": "3"}]}}}, "dtype": {"type": "DT_FLOAT"}}}, {"name": "unknown_56", "op": "Const", "attr": {"value": {"tensor": {"dtype": "DT_FLOAT", "tensorShape": {"dim": [{"size": "128"}]}}}, "dtype": {"type": "DT_FLOAT"}}}, {"name": "unknown_57", "op": "Const", "attr": {"value": {"tensor": {"dtype": "DT_FLOAT", "tensorShape": {"dim": [{"size": "64"}, {"size": "128"}, {"size": "3"}, {"size": "3"}]}}}, "dtype": {"type": "DT_FLOAT"}}}, {"name": "unknown_58", "op": "Const", "attr": {"value": {"tensor": {"dtype": "DT_FLOAT", "tensorShape": {"dim": [{"size": "64"}]}}}, "dtype": {"type": "DT_FLOAT"}}}, {"name": "unknown_59", "op": "Const", "attr": {"value": {"tensor": {"dtype": "DT_FLOAT", "tensorShape": {"dim": [{"size": "64"}, {"size": "64"}, {"size": "3"}, {"size": "3"}]}}}, "dtype": {"type": "DT_FLOAT"}}}, {"name": "unknown_60", "op": "Const", "attr": {"value": {"tensor": {"dtype": "DT_FLOAT", "tensorShape": {"dim": [{"size": "64"}]}}}, "dtype": {"type": "DT_FLOAT"}}}, {"name": "unknown_61", "op": "Const", "attr": {"value": {"tensor": {"dtype": "DT_FLOAT", "tensorShape": {"dim": [{"size": "3"}, {"size": "64"}, {"size": "3"}, {"size": "3"}]}}}, "dtype": {"type": "DT_FLOAT"}}}, {"name": "unknown_62", "op": "Const", "attr": {"value": {"tensor": {"dtype": "DT_FLOAT", "tensorShape": {"dim": [{"size": "3"}]}}}, "dtype": {"type": "DT_FLOAT"}}}, {"name": "StatefulPartitionedCall/Const", "op": "Const", "attr": {"value": {"tensor": {"dtype": "DT_INT32", "tensorShape": {}}}, "dtype": {"type": "DT_INT32"}}}, {"name": "StatefulPartitionedCall/while/loop_counter", "op": "Const", "attr": {"value": {"tensor": {"dtype": "DT_INT32", "tensorShape": {}}}, "dtype": {"type": "DT_INT32"}}}, {"name": "StatefulPartitionedCall/clip_by_value/Minimum/y", "op": "Const", "attr": {"value": {"tensor": {"dtype": "DT_FLOAT", "tensorShape": {}}}, "dtype": {"type": "DT_FLOAT"}}}, {"name": "StatefulPartitionedCall/clip_by_value/y", "op": "Const", "attr": {"value": {"tensor": {"dtype": "DT_FLOAT", "tensorShape": {}}}, "dtype": {"type": "DT_FLOAT"}}}, {"name": "StatefulPartitionedCall/strided_slice_5/stack", "op": "Const", "attr": {"value": {"tensor": {"dtype": "DT_INT32", "tensorShape": {"dim": [{"size": "1"}]}}}, "dtype": {"type": "DT_INT32"}}}, {"name": "StatefulPartitionedCall/strided_slice_5/stack_1", "op": "Const", "attr": {"value": {"tensor": {"dtype": "DT_INT32", "tensorShape": {"dim": [{"size": "1"}]}}}, "dtype": {"type": "DT_INT32"}}}, {"name": "StatefulPartitionedCall/strided_slice_5/stack_2", "op": "Const", "attr": {"value": {"tensor": {"dtype": "DT_INT32", "tensorShape": {"dim": [{"size": "1"}]}}}, "dtype": {"type": "DT_INT32"}}}, {"name": "StatefulPartitionedCall/transpose_2/perm", "op": "Const", "attr": {"value": {"tensor": {"dtype": "DT_INT32", "tensorShape": {"dim": [{"size": "3"}]}}}, "dtype": {"type": "DT_INT32"}}}, {"name": "StatefulPartitionedCall/resize_3/ExpandDims/dim", "op": "Const", "attr": {"value": {"tensor": {"dtype": "DT_INT32", "tensorShape": {}}}, "dtype": {"type": "DT_INT32"}}}, {"name": "StatefulPartitionedCall/resize_2/ExpandDims/dim", "op": "Const", "attr": {"value": {"tensor": {"dtype": "DT_INT32", "tensorShape": {}}}, "dtype": {"type": "DT_INT32"}}}, {"name": "StatefulPartitionedCall/resize_1/ExpandDims/dim", "op": "Const", "attr": {"value": {"tensor": {"dtype": "DT_INT32", "tensorShape": {}}}, "dtype": {"type": "DT_INT32"}}}, {"name": "StatefulPartitionedCall/resize/strided_slice/stack", "op": "Const", "attr": {"value": {"tensor": {"dtype": "DT_INT32", "tensorShape": {"dim": [{"size": "1"}]}}}, "dtype": {"type": "DT_INT32"}}}, {"name": "StatefulPartitionedCall/resize/strided_slice/stack_1", "op": "Const", "attr": {"value": {"tensor": {"dtype": "DT_INT32", "tensorShape": {"dim": [{"size": "1"}]}}}, "dtype": {"type": "DT_INT32"}}}, {"name": "StatefulPartitionedCall/resize/strided_slice/stack_2", "op": "Const", "attr": {"value": {"tensor": {"dtype": "DT_INT32", "tensorShape": {"dim": [{"size": "1"}]}}}, "dtype": {"type": "DT_INT32"}}}, {"name": "StatefulPartitionedCall/floordiv/y", "op": "Const", "attr": {"value": {"tensor": {"dtype": "DT_INT32", "tensorShape": {}}}, "dtype": {"type": "DT_INT32"}}}, {"name": "StatefulPartitionedCall/mul/y", "op": "Const", "attr": {"value": {"tensor": {"dtype": "DT_INT32", "tensorShape": {}}}, "dtype": {"type": "DT_INT32"}}}, {"name": "StatefulPartitionedCall/resize/strided_slice_1/stack", "op": "Const", "attr": {"value": {"tensor": {"dtype": "DT_INT32", "tensorShape": {"dim": [{"size": "1"}]}}}, "dtype": {"type": "DT_INT32"}}}, {"name": "StatefulPartitionedCall/resize/strided_slice_1/stack_1", "op": "Const", "attr": {"value": {"tensor": {"dtype": "DT_INT32", "tensorShape": {"dim": [{"size": "1"}]}}}, "dtype": {"type": "DT_INT32"}}}, {"name": "StatefulPartitionedCall/resize/strided_slice_1/stack_2", "op": "Const", "attr": {"value": {"tensor": {"dtype": "DT_INT32", "tensorShape": {"dim": [{"size": "1"}]}}}, "dtype": {"type": "DT_INT32"}}}, {"name": "StatefulPartitionedCall/resize/ExpandDims/dim", "op": "Const", "attr": {"value": {"tensor": {"dtype": "DT_INT32", "tensorShape": {}}}, "dtype": {"type": "DT_INT32"}}}, {"name": "StatefulPartitionedCall/strided_slice_1/stack", "op": "Const", "attr": {"value": {"tensor": {"dtype": "DT_INT32", "tensorShape": {"dim": [{"size": "1"}]}}}, "dtype": {"type": "DT_INT32"}}}, {"name": "StatefulPartitionedCall/strided_slice_1/stack_1", "op": "Const", "attr": {"value": {"tensor": {"dtype": "DT_INT32", "tensorShape": {"dim": [{"size": "1"}]}}}, "dtype": {"type": "DT_INT32"}}}, {"name": "StatefulPartitionedCall/strided_slice_1/stack_2", "op": "Const", "attr": {"value": {"tensor": {"dtype": "DT_INT32", "tensorShape": {"dim": [{"size": "1"}]}}}, "dtype": {"type": "DT_INT32"}}}, {"name": "StatefulPartitionedCall/floordiv_1/y", "op": "Const", "attr": {"value": {"tensor": {"dtype": "DT_INT32", "tensorShape": {}}}, "dtype": {"type": "DT_INT32"}}}, {"name": "StatefulPartitionedCall/mul_1/y", "op": "Const", "attr": {"value": {"tensor": {"dtype": "DT_INT32", "tensorShape": {}}}, "dtype": {"type": "DT_INT32"}}}, {"name": "StatefulPartitionedCall/strided_slice_2/stack", "op": "Const", "attr": {"value": {"tensor": {"dtype": "DT_INT32", "tensorShape": {"dim": [{"size": "1"}]}}}, "dtype": {"type": "DT_INT32"}}}, {"name": "StatefulPartitionedCall/strided_slice_2/stack_1", "op": "Const", "attr": {"value": {"tensor": {"dtype": "DT_INT32", "tensorShape": {"dim": [{"size": "1"}]}}}, "dtype": {"type": "DT_INT32"}}}, {"name": "StatefulPartitionedCall/strided_slice_2/stack_2", "op": "Const", "attr": {"value": {"tensor": {"dtype": "DT_INT32", "tensorShape": {"dim": [{"size": "1"}]}}}, "dtype": {"type": "DT_INT32"}}}, {"name": "content", "op": "Placeholder", "attr": {"shape": {"shape": {"dim": [{"size": "-1"}, {"size": "-1"}, {"size": "3"}]}}, "dtype": {"type": "DT_FLOAT"}}}, {"name": "iters", "op": "Placeholder", "attr": {"shape": {"shape": {}}, "dtype": {"type": "DT_INT32"}}}, {"name": "max_resolution", "op": "Placeholder", "attr": {"shape": {"shape": {}}, "dtype": {"type": "DT_INT32"}}}, {"name": "style", "op": "Placeholder", "attr": {"shape": {"shape": {"dim": [{"size": "-1"}, {"size": "-1"}, {"size": "3"}]}}, "dtype": {"type": "DT_FLOAT"}}}, {"name": "StatefulPartitionedCall/while/enter/_110", "op": "Enter", "input": ["unknown_31"], "attr": {"T": {"type": "DT_FLOAT"}, "is_constant": {"b": false}, "parallel_iterations": {"i": "10"}, "frame_name": {"s": "U3RhdGVmdWxQYXJ0aXRpb25lZENhbGwvd2hpbGU="}}}, {"name": "StatefulPartitionedCall/while/enter/_111", "op": "Enter", "input": ["unknown_32"], "attr": {"T": {"type": "DT_FLOAT"}, "is_constant": {"b": false}, "parallel_iterations": {"i": "10"}, "frame_name": {"s": "U3RhdGVmdWxQYXJ0aXRpb25lZENhbGwvd2hpbGU="}}}, {"name": "StatefulPartitionedCall/while/enter/_106", "op": "Enter", "input": ["unknown_27"], "attr": {"T": {"type": "DT_FLOAT"}, "is_constant": {"b": false}, "parallel_iterations": {"i": "10"}, "frame_name": {"s": "U3RhdGVmdWxQYXJ0aXRpb25lZENhbGwvd2hpbGU="}}}, {"name": "StatefulPartitionedCall/while/enter/_107", "op": "Enter", "input": ["unknown_28"], "attr": {"T": {"type": "DT_FLOAT"}, "is_constant": {"b": false}, "parallel_iterations": {"i": "10"}, "frame_name": {"s": "U3RhdGVmdWxQYXJ0aXRpb25lZENhbGwvd2hpbGU="}}}, {"name": "StatefulPartitionedCall/while/enter/_108", "op": "Enter", "input": ["unknown_29"], "attr": {"T": {"type": "DT_FLOAT"}, "is_constant": {"b": false}, "parallel_iterations": {"i": "10"}, "frame_name": {"s": "U3RhdGVmdWxQYXJ0aXRpb25lZENhbGwvd2hpbGU="}}}, {"name": "StatefulPartitionedCall/while/enter/_109", "op": "Enter", "input": ["unknown_30"], "attr": {"T": {"type": "DT_FLOAT"}, "is_constant": {"b": false}, "parallel_iterations": {"i": "10"}, "frame_name": {"s": "U3RhdGVmdWxQYXJ0aXRpb25lZENhbGwvd2hpbGU="}}}, {"name": "StatefulPartitionedCall/while/enter/_112", "op": "Enter", "input": ["unknown_33"], "attr": {"T": {"type": "DT_FLOAT"}, "is_constant": {"b": false}, "parallel_iterations": {"i": "10"}, "frame_name": {"s": "U3RhdGVmdWxQYXJ0aXRpb25lZENhbGwvd2hpbGU="}}}, {"name": "StatefulPartitionedCall/while/enter/_113", "op": "Enter", "input": ["unknown_34"], "attr": {"T": {"type": "DT_FLOAT"}, "is_constant": {"b": false}, "parallel_iterations": {"i": "10"}, "frame_name": {"s": "U3RhdGVmdWxQYXJ0aXRpb25lZENhbGwvd2hpbGU="}}}, {"name": "StatefulPartitionedCall/while/enter/_118", "op": "Enter", "input": ["unknown_39"], "attr": {"T": {"type": "DT_FLOAT"}, "is_constant": {"b": false}, "parallel_iterations": {"i": "10"}, "frame_name": {"s": "U3RhdGVmdWxQYXJ0aXRpb25lZENhbGwvd2hpbGU="}}}, {"name": "StatefulPartitionedCall/while/enter/_119", "op": "Enter", "input": ["unknown_40"], "attr": {"T": {"type": "DT_FLOAT"}, "is_constant": {"b": false}, "parallel_iterations": {"i": "10"}, "frame_name": {"s": "U3RhdGVmdWxQYXJ0aXRpb25lZENhbGwvd2hpbGU="}}}, {"name": "StatefulPartitionedCall/while/enter/_114", "op": "Enter", "input": ["unknown_35"], "attr": {"T": {"type": "DT_FLOAT"}, "is_constant": {"b": false}, "parallel_iterations": {"i": "10"}, "frame_name": {"s": "U3RhdGVmdWxQYXJ0aXRpb25lZENhbGwvd2hpbGU="}}}, {"name": "StatefulPartitionedCall/while/enter/_115", "op": "Enter", "input": ["unknown_36"], "attr": {"T": {"type": "DT_FLOAT"}, "is_constant": {"b": false}, "parallel_iterations": {"i": "10"}, "frame_name": {"s": "U3RhdGVmdWxQYXJ0aXRpb25lZENhbGwvd2hpbGU="}}}, {"name": "StatefulPartitionedCall/while/enter/_116", "op": "Enter", "input": ["unknown_37"], "attr": {"T": {"type": "DT_FLOAT"}, "is_constant": {"b": false}, "parallel_iterations": {"i": "10"}, "frame_name": {"s": "U3RhdGVmdWxQYXJ0aXRpb25lZENhbGwvd2hpbGU="}}}, {"name": "StatefulPartitionedCall/while/enter/_117", "op": "Enter", "input": ["unknown_38"], "attr": {"T": {"type": "DT_FLOAT"}, "is_constant": {"b": false}, "parallel_iterations": {"i": "10"}, "frame_name": {"s": "U3RhdGVmdWxQYXJ0aXRpb25lZENhbGwvd2hpbGU="}}}, {"name": "StatefulPartitionedCall/while/enter/_120", "op": "Enter", "input": ["unknown_41"], "attr": {"T": {"type": "DT_FLOAT"}, "is_constant": {"b": false}, "parallel_iterations": {"i": "10"}, "frame_name": {"s": "U3RhdGVmdWxQYXJ0aXRpb25lZENhbGwvd2hpbGU="}}}, {"name": "StatefulPartitionedCall/while/enter/_121", "op": "Enter", "input": ["unknown_42"], "attr": {"T": {"type": "DT_FLOAT"}, "is_constant": {"b": false}, "parallel_iterations": {"i": "10"}, "frame_name": {"s": "U3RhdGVmdWxQYXJ0aXRpb25lZENhbGwvd2hpbGU="}}}, {"name": "StatefulPartitionedCall/while/enter/_77", "op": "Enter", "input": ["unknown"], "attr": {"T": {"type": "DT_FLOAT"}, "is_constant": {"b": false}, "parallel_iterations": {"i": "10"}, "frame_name": {"s": "U3RhdGVmdWxQYXJ0aXRpb25lZENhbGwvd2hpbGU="}}}, {"name": "StatefulPartitionedCall/while/enter/_78", "op": "Enter", "input": ["unknown_0"], "attr": {"T": {"type": "DT_FLOAT"}, "is_constant": {"b": false}, "parallel_iterations": {"i": "10"}, "frame_name": {"s": "U3RhdGVmdWxQYXJ0aXRpb25lZENhbGwvd2hpbGU="}}}, {"name": "StatefulPartitionedCall/while/enter/_79", "op": "Enter", "input": ["unknown_1"], "attr": {"T": {"type": "DT_FLOAT"}, "is_constant": {"b": false}, "parallel_iterations": {"i": "10"}, "frame_name": {"s": "U3RhdGVmdWxQYXJ0aXRpb25lZENhbGwvd2hpbGU="}}}, {"name": "StatefulPartitionedCall/while/enter/_80", "op": "Enter", "input": ["unknown_2"], "attr": {"T": {"type": "DT_FLOAT"}, "is_constant": {"b": false}, "parallel_iterations": {"i": "10"}, "frame_name": {"s": "U3RhdGVmdWxQYXJ0aXRpb25lZENhbGwvd2hpbGU="}}}, {"name": "StatefulPartitionedCall/while/enter/_81", "op": "Enter", "input": ["unknown_3"], "attr": {"T": {"type": "DT_FLOAT"}, "is_constant": {"b": false}, "parallel_iterations": {"i": "10"}, "frame_name": {"s": "U3RhdGVmdWxQYXJ0aXRpb25lZENhbGwvd2hpbGU="}}}, {"name": "StatefulPartitionedCall/while/enter/_82", "op": "Enter", "input": ["unknown_4"], "attr": {"T": {"type": "DT_FLOAT"}, "is_constant": {"b": false}, "parallel_iterations": {"i": "10"}, "frame_name": {"s": "U3RhdGVmdWxQYXJ0aXRpb25lZENhbGwvd2hpbGU="}}}, {"name": "StatefulPartitionedCall/while/enter/_83", "op": "Enter", "input": ["unknown_5"], "attr": {"T": {"type": "DT_FLOAT"}, "is_constant": {"b": false}, "parallel_iterations": {"i": "10"}, "frame_name": {"s": "U3RhdGVmdWxQYXJ0aXRpb25lZENhbGwvd2hpbGU="}}}, {"name": "StatefulPartitionedCall/while/enter/_84", "op": "Enter", "input": ["unknown_6"], "attr": {"T": {"type": "DT_FLOAT"}, "is_constant": {"b": false}, "parallel_iterations": {"i": "10"}, "frame_name": {"s": "U3RhdGVmdWxQYXJ0aXRpb25lZENhbGwvd2hpbGU="}}}, {"name": "StatefulPartitionedCall/while/enter/_85", "op": "Enter", "input": ["unknown_7"], "attr": {"T": {"type": "DT_FLOAT"}, "is_constant": {"b": false}, "parallel_iterations": {"i": "10"}, "frame_name": {"s": "U3RhdGVmdWxQYXJ0aXRpb25lZENhbGwvd2hpbGU="}}}, {"name": "StatefulPartitionedCall/while/enter/_86", "op": "Enter", "input": ["unknown_8"], "attr": {"T": {"type": "DT_FLOAT"}, "is_constant": {"b": false}, "parallel_iterations": {"i": "10"}, "frame_name": {"s": "U3RhdGVmdWxQYXJ0aXRpb25lZENhbGwvd2hpbGU="}}}, {"name": "StatefulPartitionedCall/while/enter/_87", "op": "Enter", "input": ["unknown_9"], "attr": {"T": {"type": "DT_FLOAT"}, "is_constant": {"b": false}, "parallel_iterations": {"i": "10"}, "frame_name": {"s": "U3RhdGVmdWxQYXJ0aXRpb25lZENhbGwvd2hpbGU="}}}, {"name": "StatefulPartitionedCall/while/enter/_88", "op": "Enter", "input": ["unknown_10"], "attr": {"T": {"type": "DT_FLOAT"}, "is_constant": {"b": false}, "parallel_iterations": {"i": "10"}, "frame_name": {"s": "U3RhdGVmdWxQYXJ0aXRpb25lZENhbGwvd2hpbGU="}}}, {"name": "StatefulPartitionedCall/while/enter/_89", "op": "Enter", "input": ["unknown_11"], "attr": {"T": {"type": "DT_FLOAT"}, "is_constant": {"b": false}, "parallel_iterations": {"i": "10"}, "frame_name": {"s": "U3RhdGVmdWxQYXJ0aXRpb25lZENhbGwvd2hpbGU="}}}, {"name": "StatefulPartitionedCall/while/enter/_90", "op": "Enter", "input": ["unknown_12"], "attr": {"T": {"type": "DT_FLOAT"}, "is_constant": {"b": false}, "parallel_iterations": {"i": "10"}, "frame_name": {"s": "U3RhdGVmdWxQYXJ0aXRpb25lZENhbGwvd2hpbGU="}}}, {"name": "StatefulPartitionedCall/while/enter/_91", "op": "Enter", "input": ["unknown_13"], "attr": {"T": {"type": "DT_FLOAT"}, "is_constant": {"b": false}, "parallel_iterations": {"i": "10"}, "frame_name": {"s": "U3RhdGVmdWxQYXJ0aXRpb25lZENhbGwvd2hpbGU="}}}, {"name": "StatefulPartitionedCall/while/enter/_92", "op": "Enter", "input": ["unknown_14"], "attr": {"T": {"type": "DT_FLOAT"}, "is_constant": {"b": false}, "parallel_iterations": {"i": "10"}, "frame_name": {"s": "U3RhdGVmdWxQYXJ0aXRpb25lZENhbGwvd2hpbGU="}}}, {"name": "StatefulPartitionedCall/while/enter/_93", "op": "Enter", "input": ["unknown_15"], "attr": {"T": {"type": "DT_FLOAT"}, "is_constant": {"b": false}, "parallel_iterations": {"i": "10"}, "frame_name": {"s": "U3RhdGVmdWxQYXJ0aXRpb25lZENhbGwvd2hpbGU="}}}, {"name": "StatefulPartitionedCall/while/enter/_94", "op": "Enter", "input": ["unknown_16"], "attr": {"T": {"type": "DT_FLOAT"}, "is_constant": {"b": false}, "parallel_iterations": {"i": "10"}, "frame_name": {"s": "U3RhdGVmdWxQYXJ0aXRpb25lZENhbGwvd2hpbGU="}}}, {"name": "StatefulPartitionedCall/while/enter/_95", "op": "Enter", "input": ["unknown_17"], "attr": {"T": {"type": "DT_FLOAT"}, "is_constant": {"b": false}, "parallel_iterations": {"i": "10"}, "frame_name": {"s": "U3RhdGVmdWxQYXJ0aXRpb25lZENhbGwvd2hpbGU="}}}, {"name": "StatefulPartitionedCall/while/enter/_96", "op": "Enter", "input": ["unknown_18"], "attr": {"T": {"type": "DT_FLOAT"}, "is_constant": {"b": false}, "parallel_iterations": {"i": "10"}, "frame_name": {"s": "U3RhdGVmdWxQYXJ0aXRpb25lZENhbGwvd2hpbGU="}}}, {"name": "StatefulPartitionedCall/while/enter/_97", "op": "Enter", "input": ["unknown_19"], "attr": {"T": {"type": "DT_FLOAT"}, "is_constant": {"b": false}, "parallel_iterations": {"i": "10"}, "frame_name": {"s": "U3RhdGVmdWxQYXJ0aXRpb25lZENhbGwvd2hpbGU="}}}, {"name": "StatefulPartitionedCall/while/enter/_98", "op": "Enter", "input": ["unknown_20"], "attr": {"T": {"type": "DT_FLOAT"}, "is_constant": {"b": false}, "parallel_iterations": {"i": "10"}, "frame_name": {"s": "U3RhdGVmdWxQYXJ0aXRpb25lZENhbGwvd2hpbGU="}}}, {"name": "StatefulPartitionedCall/while/enter/_99", "op": "Enter", "input": ["unknown_21"], "attr": {"T": {"type": "DT_FLOAT"}, "is_constant": {"b": false}, "parallel_iterations": {"i": "10"}, "frame_name": {"s": "U3RhdGVmdWxQYXJ0aXRpb25lZENhbGwvd2hpbGU="}}}, {"name": "StatefulPartitionedCall/while/enter/_100", "op": "Enter", "input": ["unknown_22"], "attr": {"T": {"type": "DT_FLOAT"}, "is_constant": {"b": false}, "parallel_iterations": {"i": "10"}, "frame_name": {"s": "U3RhdGVmdWxQYXJ0aXRpb25lZENhbGwvd2hpbGU="}}}, {"name": "StatefulPartitionedCall/while/enter/_101", "op": "Enter", "input": ["unknown_23"], "attr": {"T": {"type": "DT_FLOAT"}, "is_constant": {"b": false}, "parallel_iterations": {"i": "10"}, "frame_name": {"s": "U3RhdGVmdWxQYXJ0aXRpb25lZENhbGwvd2hpbGU="}}}, {"name": "StatefulPartitionedCall/while/enter/_102", "op": "Enter", "input": ["unknown_24"], "attr": {"T": {"type": "DT_FLOAT"}, "is_constant": {"b": false}, "parallel_iterations": {"i": "10"}, "frame_name": {"s": "U3RhdGVmdWxQYXJ0aXRpb25lZENhbGwvd2hpbGU="}}}, {"name": "StatefulPartitionedCall/while/enter/_103", "op": "Enter", "input": ["unknown_25"], "attr": {"T": {"type": "DT_FLOAT"}, "is_constant": {"b": false}, "parallel_iterations": {"i": "10"}, "frame_name": {"s": "U3RhdGVmdWxQYXJ0aXRpb25lZENhbGwvd2hpbGU="}}}, {"name": "StatefulPartitionedCall/while/enter/_104", "op": "Enter", "input": ["unknown_26"], "attr": {"T": {"type": "DT_FLOAT"}, "is_constant": {"b": false}, "parallel_iterations": {"i": "10"}, "frame_name": {"s": "U3RhdGVmdWxQYXJ0aXRpb25lZENhbGwvd2hpbGU="}}}, {"name": "StatefulPartitionedCall/while/enter/_122", "op": "Enter", "input": ["unknown_43"], "attr": {"T": {"type": "DT_FLOAT"}, "is_constant": {"b": false}, "parallel_iterations": {"i": "10"}, "frame_name": {"s": "U3RhdGVmdWxQYXJ0aXRpb25lZENhbGwvd2hpbGU="}}}, {"name": "StatefulPartitionedCall/while/enter/_123", "op": "Enter", "input": ["unknown_44"], "attr": {"T": {"type": "DT_FLOAT"}, "is_constant": {"b": false}, "parallel_iterations": {"i": "10"}, "frame_name": {"s": "U3RhdGVmdWxQYXJ0aXRpb25lZENhbGwvd2hpbGU="}}}, {"name": "StatefulPartitionedCall/while/enter/_124", "op": "Enter", "input": ["unknown_45"], "attr": {"T": {"type": "DT_FLOAT"}, "is_constant": {"b": false}, "parallel_iterations": {"i": "10"}, "frame_name": {"s": "U3RhdGVmdWxQYXJ0aXRpb25lZENhbGwvd2hpbGU="}}}, {"name": "StatefulPartitionedCall/while/enter/_125", "op": "Enter", "input": ["unknown_46"], "attr": {"T": {"type": "DT_FLOAT"}, "is_constant": {"b": false}, "parallel_iterations": {"i": "10"}, "frame_name": {"s": "U3RhdGVmdWxQYXJ0aXRpb25lZENhbGwvd2hpbGU="}}}, {"name": "StatefulPartitionedCall/while/enter/_126", "op": "Enter", "input": ["unknown_47"], "attr": {"T": {"type": "DT_FLOAT"}, "is_constant": {"b": false}, "parallel_iterations": {"i": "10"}, "frame_name": {"s": "U3RhdGVmdWxQYXJ0aXRpb25lZENhbGwvd2hpbGU="}}}, {"name": "StatefulPartitionedCall/while/enter/_127", "op": "Enter", "input": ["unknown_48"], "attr": {"T": {"type": "DT_FLOAT"}, "is_constant": {"b": false}, "parallel_iterations": {"i": "10"}, "frame_name": {"s": "U3RhdGVmdWxQYXJ0aXRpb25lZENhbGwvd2hpbGU="}}}, {"name": "StatefulPartitionedCall/while/enter/_128", "op": "Enter", "input": ["unknown_49"], "attr": {"T": {"type": "DT_FLOAT"}, "is_constant": {"b": false}, "parallel_iterations": {"i": "10"}, "frame_name": {"s": "U3RhdGVmdWxQYXJ0aXRpb25lZENhbGwvd2hpbGU="}}}, {"name": "StatefulPartitionedCall/while/enter/_129", "op": "Enter", "input": ["unknown_50"], "attr": {"T": {"type": "DT_FLOAT"}, "is_constant": {"b": false}, "parallel_iterations": {"i": "10"}, "frame_name": {"s": "U3RhdGVmdWxQYXJ0aXRpb25lZENhbGwvd2hpbGU="}}}, {"name": "StatefulPartitionedCall/while/enter/_130", "op": "Enter", "input": ["unknown_51"], "attr": {"T": {"type": "DT_FLOAT"}, "is_constant": {"b": false}, "parallel_iterations": {"i": "10"}, "frame_name": {"s": "U3RhdGVmdWxQYXJ0aXRpb25lZENhbGwvd2hpbGU="}}}, {"name": "StatefulPartitionedCall/while/enter/_131", "op": "Enter", "input": ["unknown_52"], "attr": {"T": {"type": "DT_FLOAT"}, "is_constant": {"b": false}, "parallel_iterations": {"i": "10"}, "frame_name": {"s": "U3RhdGVmdWxQYXJ0aXRpb25lZENhbGwvd2hpbGU="}}}, {"name": "StatefulPartitionedCall/while/enter/_132", "op": "Enter", "input": ["unknown_53"], "attr": {"T": {"type": "DT_FLOAT"}, "is_constant": {"b": false}, "parallel_iterations": {"i": "10"}, "frame_name": {"s": "U3RhdGVmdWxQYXJ0aXRpb25lZENhbGwvd2hpbGU="}}}, {"name": "StatefulPartitionedCall/while/enter/_133", "op": "Enter", "input": ["unknown_54"], "attr": {"T": {"type": "DT_FLOAT"}, "is_constant": {"b": false}, "parallel_iterations": {"i": "10"}, "frame_name": {"s": "U3RhdGVmdWxQYXJ0aXRpb25lZENhbGwvd2hpbGU="}}}, {"name": "StatefulPartitionedCall/while/enter/_134", "op": "Enter", "input": ["unknown_55"], "attr": {"T": {"type": "DT_FLOAT"}, "is_constant": {"b": false}, "parallel_iterations": {"i": "10"}, "frame_name": {"s": "U3RhdGVmdWxQYXJ0aXRpb25lZENhbGwvd2hpbGU="}}}, {"name": "StatefulPartitionedCall/while/enter/_135", "op": "Enter", "input": ["unknown_56"], "attr": {"T": {"type": "DT_FLOAT"}, "is_constant": {"b": false}, "parallel_iterations": {"i": "10"}, "frame_name": {"s": "U3RhdGVmdWxQYXJ0aXRpb25lZENhbGwvd2hpbGU="}}}, {"name": "StatefulPartitionedCall/while/enter/_136", "op": "Enter", "input": ["unknown_57"], "attr": {"T": {"type": "DT_FLOAT"}, "is_constant": {"b": false}, "parallel_iterations": {"i": "10"}, "frame_name": {"s": "U3RhdGVmdWxQYXJ0aXRpb25lZENhbGwvd2hpbGU="}}}, {"name": "StatefulPartitionedCall/while/enter/_137", "op": "Enter", "input": ["unknown_58"], "attr": {"T": {"type": "DT_FLOAT"}, "is_constant": {"b": false}, "parallel_iterations": {"i": "10"}, "frame_name": {"s": "U3RhdGVmdWxQYXJ0aXRpb25lZENhbGwvd2hpbGU="}}}, {"name": "StatefulPartitionedCall/while/enter/_138", "op": "Enter", "input": ["unknown_59"], "attr": {"T": {"type": "DT_FLOAT"}, "is_constant": {"b": false}, "parallel_iterations": {"i": "10"}, "frame_name": {"s": "U3RhdGVmdWxQYXJ0aXRpb25lZENhbGwvd2hpbGU="}}}, {"name": "StatefulPartitionedCall/while/enter/_139", "op": "Enter", "input": ["unknown_60"], "attr": {"T": {"type": "DT_FLOAT"}, "is_constant": {"b": false}, "parallel_iterations": {"i": "10"}, "frame_name": {"s": "U3RhdGVmdWxQYXJ0aXRpb25lZENhbGwvd2hpbGU="}}}, {"name": "StatefulPartitionedCall/while/enter/_140", "op": "Enter", "input": ["unknown_61"], "attr": {"T": {"type": "DT_FLOAT"}, "is_constant": {"b": false}, "parallel_iterations": {"i": "10"}, "frame_name": {"s": "U3RhdGVmdWxQYXJ0aXRpb25lZENhbGwvd2hpbGU="}}}, {"name": "StatefulPartitionedCall/while/enter/_141", "op": "Enter", "input": ["unknown_62"], "attr": {"T": {"type": "DT_FLOAT"}, "is_constant": {"b": false}, "parallel_iterations": {"i": "10"}, "frame_name": {"s": "U3RhdGVmdWxQYXJ0aXRpb25lZENhbGwvd2hpbGU="}}}, {"name": "StatefulPartitionedCall/while/enter/_75", "op": "Enter", "input": ["StatefulPartitionedCall/Const"], "attr": {"T": {"type": "DT_INT32"}, "is_constant": {"b": false}, "parallel_iterations": {"i": "10"}, "frame_name": {"s": "U3RhdGVmdWxQYXJ0aXRpb25lZENhbGwvd2hpbGU="}}}, {"name": "StatefulPartitionedCall/while/enter/_72", "op": "Enter", "input": ["StatefulPartitionedCall/while/loop_counter"], "attr": {"T": {"type": "DT_INT32"}, "is_constant": {"b": false}, "parallel_iterations": {"i": "10"}, "frame_name": {"s": "U3RhdGVmdWxQYXJ0aXRpb25lZENhbGwvd2hpbGU="}}}, {"name": "StatefulPartitionedCall/Shape", "op": "Shape", "input": ["content"], "attr": {"T": {"type": "DT_FLOAT"}, "out_type": {"type": "DT_INT32"}}}, {"name": "StatefulPartitionedCall/resize/ExpandDims", "op": "ExpandDims", "input": ["content", "StatefulPartitionedCall/resize/ExpandDims/dim"], "attr": {"Tdim": {"type": "DT_INT32"}, "T": {"type": "DT_FLOAT"}}}, {"name": "StatefulPartitionedCall/while/enter/_76", "op": "Enter", "input": ["iters"], "attr": {"T": {"type": "DT_INT32"}, "is_constant": {"b": false}, "parallel_iterations": {"i": "10"}, "frame_name": {"s": "U3RhdGVmdWxQYXJ0aXRpb25lZENhbGwvd2hpbGU="}}}, {"name": "StatefulPartitionedCall/floordiv", "op": "FloorDiv", "input": ["max_resolution", "StatefulPartitionedCall/floordiv/y"], "attr": {"T": {"type": "DT_INT32"}}}, {"name": "StatefulPartitionedCall/resize_2/ExpandDims", "op": "ExpandDims", "input": ["style", "StatefulPartitionedCall/resize_2/ExpandDims/dim"], "attr": {"Tdim": {"type": "DT_INT32"}, "T": {"type": "DT_FLOAT"}}}, {"name": "StatefulPartitionedCall/while/merge/_180", "op": "Merge", "input": ["StatefulPartitionedCall/while/enter/_110", "StatefulPartitionedCall/while/next_iteration/_393"], "attr": {"T": {"type": "DT_FLOAT"}, "N": {"i": "2"}}}, {"name": "StatefulPartitionedCall/while/merge/_181", "op": "Merge", "input": ["StatefulPartitionedCall/while/enter/_111", "StatefulPartitionedCall/while/next_iteration/_394"], "attr": {"T": {"type": "DT_FLOAT"}, "N": {"i": "2"}}}, {"name": "StatefulPartitionedCall/while/merge/_176", "op": "Merge", "input": ["StatefulPartitionedCall/while/enter/_106", "StatefulPartitionedCall/while/next_iteration/_389"], "attr": {"T": {"type": "DT_FLOAT"}, "N": {"i": "2"}}}, {"name": "StatefulPartitionedCall/while/merge/_177", "op": "Merge", "input": ["StatefulPartitionedCall/while/enter/_107", "StatefulPartitionedCall/while/next_iteration/_390"], "attr": {"T": {"type": "DT_FLOAT"}, "N": {"i": "2"}}}, {"name": "StatefulPartitionedCall/while/merge/_178", "op": "Merge", "input": ["StatefulPartitionedCall/while/enter/_108", "StatefulPartitionedCall/while/next_iteration/_391"], "attr": {"T": {"type": "DT_FLOAT"}, "N": {"i": "2"}}}, {"name": "StatefulPartitionedCall/while/merge/_179", "op": "Merge", "input": ["StatefulPartitionedCall/while/enter/_109", "StatefulPartitionedCall/while/next_iteration/_392"], "attr": {"T": {"type": "DT_FLOAT"}, "N": {"i": "2"}}}, {"name": "StatefulPartitionedCall/while/merge/_182", "op": "Merge", "input": ["StatefulPartitionedCall/while/enter/_112", "StatefulPartitionedCall/while/next_iteration/_395"], "attr": {"T": {"type": "DT_FLOAT"}, "N": {"i": "2"}}}, {"name": "StatefulPartitionedCall/while/merge/_183", "op": "Merge", "input": ["StatefulPartitionedCall/while/enter/_113", "StatefulPartitionedCall/while/next_iteration/_396"], "attr": {"T": {"type": "DT_FLOAT"}, "N": {"i": "2"}}}, {"name": "StatefulPartitionedCall/while/merge/_188", "op": "Merge", "input": ["StatefulPartitionedCall/while/enter/_118", "StatefulPartitionedCall/while/next_iteration/_401"], "attr": {"T": {"type": "DT_FLOAT"}, "N": {"i": "2"}}}, {"name": "StatefulPartitionedCall/while/merge/_189", "op": "Merge", "input": ["StatefulPartitionedCall/while/enter/_119", "StatefulPartitionedCall/while/next_iteration/_402"], "attr": {"T": {"type": "DT_FLOAT"}, "N": {"i": "2"}}}, {"name": "StatefulPartitionedCall/while/merge/_184", "op": "Merge", "input": ["StatefulPartitionedCall/while/enter/_114", "StatefulPartitionedCall/while/next_iteration/_397"], "attr": {"T": {"type": "DT_FLOAT"}, "N": {"i": "2"}}}, {"name": "StatefulPartitionedCall/while/merge/_185", "op": "Merge", "input": ["StatefulPartitionedCall/while/enter/_115", "StatefulPartitionedCall/while/next_iteration/_398"], "attr": {"T": {"type": "DT_FLOAT"}, "N": {"i": "2"}}}, {"name": "StatefulPartitionedCall/while/merge/_186", "op": "Merge", "input": ["StatefulPartitionedCall/while/enter/_116", "StatefulPartitionedCall/while/next_iteration/_399"], "attr": {"T": {"type": "DT_FLOAT"}, "N": {"i": "2"}}}, {"name": "StatefulPartitionedCall/while/merge/_187", "op": "Merge", "input": ["StatefulPartitionedCall/while/enter/_117", "StatefulPartitionedCall/while/next_iteration/_400"], "attr": {"T": {"type": "DT_FLOAT"}, "N": {"i": "2"}}}, {"name": "StatefulPartitionedCall/while/merge/_190", "op": "Merge", "input": ["StatefulPartitionedCall/while/enter/_120", "StatefulPartitionedCall/while/next_iteration/_403"], "attr": {"T": {"type": "DT_FLOAT"}, "N": {"i": "2"}}}, {"name": "StatefulPartitionedCall/while/merge/_191", "op": "Merge", "input": ["StatefulPartitionedCall/while/enter/_121", "StatefulPartitionedCall/while/next_iteration/_404"], "attr": {"T": {"type": "DT_FLOAT"}, "N": {"i": "2"}}}, {"name": "StatefulPartitionedCall/while/merge/_147", "op": "Merge", "input": ["StatefulPartitionedCall/while/enter/_77", "StatefulPartitionedCall/while/next_iteration/_360"], "attr": {"T": {"type": "DT_FLOAT"}, "N": {"i": "2"}}}, {"name": "StatefulPartitionedCall/while/merge/_148", "op": "Merge", "input": ["StatefulPartitionedCall/while/enter/_78", "StatefulPartitionedCall/while/next_iteration/_361"], "attr": {"T": {"type": "DT_FLOAT"}, "N": {"i": "2"}}}, {"name": "StatefulPartitionedCall/while/merge/_149", "op": "Merge", "input": ["StatefulPartitionedCall/while/enter/_79", "StatefulPartitionedCall/while/next_iteration/_362"], "attr": {"T": {"type": "DT_FLOAT"}, "N": {"i": "2"}}}, {"name": "StatefulPartitionedCall/while/merge/_150", "op": "Merge", "input": ["StatefulPartitionedCall/while/enter/_80", "StatefulPartitionedCall/while/next_iteration/_363"], "attr": {"T": {"type": "DT_FLOAT"}, "N": {"i": "2"}}}, {"name": "StatefulPartitionedCall/while/merge/_151", "op": "Merge", "input": ["StatefulPartitionedCall/while/enter/_81", "StatefulPartitionedCall/while/next_iteration/_364"], "attr": {"T": {"type": "DT_FLOAT"}, "N": {"i": "2"}}}, {"name": "StatefulPartitionedCall/while/merge/_152", "op": "Merge", "input": ["StatefulPartitionedCall/while/enter/_82", "StatefulPartitionedCall/while/next_iteration/_365"], "attr": {"T": {"type": "DT_FLOAT"}, "N": {"i": "2"}}}, {"name": "StatefulPartitionedCall/while/merge/_153", "op": "Merge", "input": ["StatefulPartitionedCall/while/enter/_83", "StatefulPartitionedCall/while/next_iteration/_366"], "attr": {"T": {"type": "DT_FLOAT"}, "N": {"i": "2"}}}, {"name": "StatefulPartitionedCall/while/merge/_154", "op": "Merge", "input": ["StatefulPartitionedCall/while/enter/_84", "StatefulPartitionedCall/while/next_iteration/_367"], "attr": {"T": {"type": "DT_FLOAT"}, "N": {"i": "2"}}}, {"name": "StatefulPartitionedCall/while/merge/_155", "op": "Merge", "input": ["StatefulPartitionedCall/while/enter/_85", "StatefulPartitionedCall/while/next_iteration/_368"], "attr": {"T": {"type": "DT_FLOAT"}, "N": {"i": "2"}}}, {"name": "StatefulPartitionedCall/while/merge/_156", "op": "Merge", "input": ["StatefulPartitionedCall/while/enter/_86", "StatefulPartitionedCall/while/next_iteration/_369"], "attr": {"T": {"type": "DT_FLOAT"}, "N": {"i": "2"}}}, {"name": "StatefulPartitionedCall/while/merge/_157", "op": "Merge", "input": ["StatefulPartitionedCall/while/enter/_87", "StatefulPartitionedCall/while/next_iteration/_370"], "attr": {"T": {"type": "DT_FLOAT"}, "N": {"i": "2"}}}, {"name": "StatefulPartitionedCall/while/merge/_158", "op": "Merge", "input": ["StatefulPartitionedCall/while/enter/_88", "StatefulPartitionedCall/while/next_iteration/_371"], "attr": {"T": {"type": "DT_FLOAT"}, "N": {"i": "2"}}}, {"name": "StatefulPartitionedCall/while/merge/_159", "op": "Merge", "input": ["StatefulPartitionedCall/while/enter/_89", "StatefulPartitionedCall/while/next_iteration/_372"], "attr": {"T": {"type": "DT_FLOAT"}, "N": {"i": "2"}}}, {"name": "StatefulPartitionedCall/while/merge/_160", "op": "Merge", "input": ["StatefulPartitionedCall/while/enter/_90", "StatefulPartitionedCall/while/next_iteration/_373"], "attr": {"T": {"type": "DT_FLOAT"}, "N": {"i": "2"}}}, {"name": "StatefulPartitionedCall/while/merge/_161", "op": "Merge", "input": ["StatefulPartitionedCall/while/enter/_91", "StatefulPartitionedCall/while/next_iteration/_374"], "attr": {"T": {"type": "DT_FLOAT"}, "N": {"i": "2"}}}, {"name": "StatefulPartitionedCall/while/merge/_162", "op": "Merge", "input": ["StatefulPartitionedCall/while/enter/_92", "StatefulPartitionedCall/while/next_iteration/_375"], "attr": {"T": {"type": "DT_FLOAT"}, "N": {"i": "2"}}}, {"name": "StatefulPartitionedCall/while/merge/_163", "op": "Merge", "input": ["StatefulPartitionedCall/while/enter/_93", "StatefulPartitionedCall/while/next_iteration/_376"], "attr": {"T": {"type": "DT_FLOAT"}, "N": {"i": "2"}}}, {"name": "StatefulPartitionedCall/while/merge/_164", "op": "Merge", "input": ["StatefulPartitionedCall/while/enter/_94", "StatefulPartitionedCall/while/next_iteration/_377"], "attr": {"T": {"type": "DT_FLOAT"}, "N": {"i": "2"}}}, {"name": "StatefulPartitionedCall/while/merge/_165", "op": "Merge", "input": ["StatefulPartitionedCall/while/enter/_95", "StatefulPartitionedCall/while/next_iteration/_378"], "attr": {"T": {"type": "DT_FLOAT"}, "N": {"i": "2"}}}, {"name": "StatefulPartitionedCall/while/merge/_166", "op": "Merge", "input": ["StatefulPartitionedCall/while/enter/_96", "StatefulPartitionedCall/while/next_iteration/_379"], "attr": {"T": {"type": "DT_FLOAT"}, "N": {"i": "2"}}}, {"name": "StatefulPartitionedCall/while/merge/_167", "op": "Merge", "input": ["StatefulPartitionedCall/while/enter/_97", "StatefulPartitionedCall/while/next_iteration/_380"], "attr": {"T": {"type": "DT_FLOAT"}, "N": {"i": "2"}}}, {"name": "StatefulPartitionedCall/while/merge/_168", "op": "Merge", "input": ["StatefulPartitionedCall/while/enter/_98", "StatefulPartitionedCall/while/next_iteration/_381"], "attr": {"T": {"type": "DT_FLOAT"}, "N": {"i": "2"}}}, {"name": "StatefulPartitionedCall/while/merge/_169", "op": "Merge", "input": ["StatefulPartitionedCall/while/enter/_99", "StatefulPartitionedCall/while/next_iteration/_382"], "attr": {"T": {"type": "DT_FLOAT"}, "N": {"i": "2"}}}, {"name": "StatefulPartitionedCall/while/merge/_170", "op": "Merge", "input": ["StatefulPartitionedCall/while/enter/_100", "StatefulPartitionedCall/while/next_iteration/_383"], "attr": {"T": {"type": "DT_FLOAT"}, "N": {"i": "2"}}}, {"name": "StatefulPartitionedCall/while/merge/_171", "op": "Merge", "input": ["StatefulPartitionedCall/while/enter/_101", "StatefulPartitionedCall/while/next_iteration/_384"], "attr": {"T": {"type": "DT_FLOAT"}, "N": {"i": "2"}}}, {"name": "StatefulPartitionedCall/while/merge/_172", "op": "Merge", "input": ["StatefulPartitionedCall/while/enter/_102", "StatefulPartitionedCall/while/next_iteration/_385"], "attr": {"T": {"type": "DT_FLOAT"}, "N": {"i": "2"}}}, {"name": "StatefulPartitionedCall/while/merge/_173", "op": "Merge", "input": ["StatefulPartitionedCall/while/enter/_103", "StatefulPartitionedCall/while/next_iteration/_386"], "attr": {"T": {"type": "DT_FLOAT"}, "N": {"i": "2"}}}, {"name": "StatefulPartitionedCall/while/merge/_174", "op": "Merge", "input": ["StatefulPartitionedCall/while/enter/_104", "StatefulPartitionedCall/while/next_iteration/_387"], "attr": {"T": {"type": "DT_FLOAT"}, "N": {"i": "2"}}}, {"name": "StatefulPartitionedCall/while/merge/_192", "op": "Merge", "input": ["StatefulPartitionedCall/while/enter/_122", "StatefulPartitionedCall/while/next_iteration/_405"], "attr": {"T": {"type": "DT_FLOAT"}, "N": {"i": "2"}}}, {"name": "StatefulPartitionedCall/while/merge/_193", "op": "Merge", "input": ["StatefulPartitionedCall/while/enter/_123", "StatefulPartitionedCall/while/next_iteration/_406"], "attr": {"T": {"type": "DT_FLOAT"}, "N": {"i": "2"}}}, {"name": "StatefulPartitionedCall/while/merge/_194", "op": "Merge", "input": ["StatefulPartitionedCall/while/enter/_124", "StatefulPartitionedCall/while/next_iteration/_407"], "attr": {"T": {"type": "DT_FLOAT"}, "N": {"i": "2"}}}, {"name": "StatefulPartitionedCall/while/merge/_195", "op": "Merge", "input": ["StatefulPartitionedCall/while/enter/_125", "StatefulPartitionedCall/while/next_iteration/_408"], "attr": {"T": {"type": "DT_FLOAT"}, "N": {"i": "2"}}}, {"name": "StatefulPartitionedCall/while/merge/_196", "op": "Merge", "input": ["StatefulPartitionedCall/while/enter/_126", "StatefulPartitionedCall/while/next_iteration/_409"], "attr": {"T": {"type": "DT_FLOAT"}, "N": {"i": "2"}}}, {"name": "StatefulPartitionedCall/while/merge/_197", "op": "Merge", "input": ["StatefulPartitionedCall/while/enter/_127", "StatefulPartitionedCall/while/next_iteration/_410"], "attr": {"T": {"type": "DT_FLOAT"}, "N": {"i": "2"}}}, {"name": "StatefulPartitionedCall/while/merge/_198", "op": "Merge", "input": ["StatefulPartitionedCall/while/enter/_128", "StatefulPartitionedCall/while/next_iteration/_411"], "attr": {"T": {"type": "DT_FLOAT"}, "N": {"i": "2"}}}, {"name": "StatefulPartitionedCall/while/merge/_199", "op": "Merge", "input": ["StatefulPartitionedCall/while/enter/_129", "StatefulPartitionedCall/while/next_iteration/_412"], "attr": {"T": {"type": "DT_FLOAT"}, "N": {"i": "2"}}}, {"name": "StatefulPartitionedCall/while/merge/_200", "op": "Merge", "input": ["StatefulPartitionedCall/while/enter/_130", "StatefulPartitionedCall/while/next_iteration/_413"], "attr": {"T": {"type": "DT_FLOAT"}, "N": {"i": "2"}}}, {"name": "StatefulPartitionedCall/while/merge/_201", "op": "Merge", "input": ["StatefulPartitionedCall/while/enter/_131", "StatefulPartitionedCall/while/next_iteration/_414"], "attr": {"T": {"type": "DT_FLOAT"}, "N": {"i": "2"}}}, {"name": "StatefulPartitionedCall/while/merge/_202", "op": "Merge", "input": ["StatefulPartitionedCall/while/enter/_132", "StatefulPartitionedCall/while/next_iteration/_415"], "attr": {"T": {"type": "DT_FLOAT"}, "N": {"i": "2"}}}, {"name": "StatefulPartitionedCall/while/merge/_203", "op": "Merge", "input": ["StatefulPartitionedCall/while/enter/_133", "StatefulPartitionedCall/while/next_iteration/_416"], "attr": {"T": {"type": "DT_FLOAT"}, "N": {"i": "2"}}}, {"name": "StatefulPartitionedCall/while/merge/_204", "op": "Merge", "input": ["StatefulPartitionedCall/while/enter/_134", "StatefulPartitionedCall/while/next_iteration/_417"], "attr": {"T": {"type": "DT_FLOAT"}, "N": {"i": "2"}}}, {"name": "StatefulPartitionedCall/while/merge/_205", "op": "Merge", "input": ["StatefulPartitionedCall/while/enter/_135", "StatefulPartitionedCall/while/next_iteration/_418"], "attr": {"T": {"type": "DT_FLOAT"}, "N": {"i": "2"}}}, {"name": "StatefulPartitionedCall/while/merge/_206", "op": "Merge", "input": ["StatefulPartitionedCall/while/enter/_136", "StatefulPartitionedCall/while/next_iteration/_419"], "attr": {"T": {"type": "DT_FLOAT"}, "N": {"i": "2"}}}, {"name": "StatefulPartitionedCall/while/merge/_207", "op": "Merge", "input": ["StatefulPartitionedCall/while/enter/_137", "StatefulPartitionedCall/while/next_iteration/_420"], "attr": {"T": {"type": "DT_FLOAT"}, "N": {"i": "2"}}}, {"name": "StatefulPartitionedCall/while/merge/_208", "op": "Merge", "input": ["StatefulPartitionedCall/while/enter/_138", "StatefulPartitionedCall/while/next_iteration/_421"], "attr": {"T": {"type": "DT_FLOAT"}, "N": {"i": "2"}}}, {"name": "StatefulPartitionedCall/while/merge/_209", "op": "Merge", "input": ["StatefulPartitionedCall/while/enter/_139", "StatefulPartitionedCall/while/next_iteration/_422"], "attr": {"T": {"type": "DT_FLOAT"}, "N": {"i": "2"}}}, {"name": "StatefulPartitionedCall/while/merge/_210", "op": "Merge", "input": ["StatefulPartitionedCall/while/enter/_140", "StatefulPartitionedCall/while/next_iteration/_423"], "attr": {"T": {"type": "DT_FLOAT"}, "N": {"i": "2"}}}, {"name": "StatefulPartitionedCall/while/merge/_211", "op": "Merge", "input": ["StatefulPartitionedCall/while/enter/_141", "StatefulPartitionedCall/while/next_iteration/_424"], "attr": {"T": {"type": "DT_FLOAT"}, "N": {"i": "2"}}}, {"name": "StatefulPartitionedCall/while/merge/_145", "op": "Merge", "input": ["StatefulPartitionedCall/while/enter/_75", "StatefulPartitionedCall/while/next_iteration/_358"], "attr": {"T": {"type": "DT_INT32"}, "N": {"i": "2"}}}, {"name": "StatefulPartitionedCall/while/merge/_142", "op": "Merge", "input": ["StatefulPartitionedCall/while/enter/_72", "StatefulPartitionedCall/while/next_iteration/_355"], "attr": {"T": {"type": "DT_INT32"}, "N": {"i": "2"}}}, {"name": "StatefulPartitionedCall/strided_slice", "op": "StridedSlice", "input": ["StatefulPartitionedCall/Shape", "StatefulPartitionedCall/strided_slice/stack", "StatefulPartitionedCall/strided_slice/stack_1", "StatefulPartitionedCall/strided_slice/stack_2"], "attr": {"T": {"type": "DT_INT32"}, "Index": {"type": "DT_INT32"}, "shrink_axis_mask": {"i": "0"}, "ellipsis_mask": {"i": "0"}, "begin_mask": {"i": "1"}, "new_axis_mask": {"i": "0"}, "end_mask": {"i": "0"}}}, {"name": "StatefulPartitionedCall/resize/Shape", "op": "Shape", "input": ["StatefulPartitionedCall/resize/ExpandDims"], "attr": {"T": {"type": "DT_FLOAT"}, "out_type": {"type": "DT_INT32"}}}, {"name": "StatefulPartitionedCall/while/merge/_146", "op": "Merge", "input": ["StatefulPartitionedCall/while/enter/_76", "StatefulPartitionedCall/while/next_iteration/_359"], "attr": {"T": {"type": "DT_INT32"}, "N": {"i": "2"}}}, {"name": "StatefulPartitionedCall/mul", "op": "Mul", "input": ["StatefulPartitionedCall/floordiv", "StatefulPartitionedCall/mul/y"], "attr": {"T": {"type": "DT_INT32"}}}, {"name": "StatefulPartitionedCall/resize_3/strided_slice", "op": "StridedSlice", "input": ["StatefulPartitionedCall/strided_slice", "StatefulPartitionedCall/resize_3/strided_slice/stack", "StatefulPartitionedCall/resize_3/strided_slice/stack_1", "StatefulPartitionedCall/resize_3/strided_slice/stack_2"], "attr": {"T": {"type": "DT_INT32"}, "Index": {"type": "DT_INT32"}, "shrink_axis_mask": {"i": "1"}, "ellipsis_mask": {"i": "0"}, "begin_mask": {"i": "0"}, "new_axis_mask": {"i": "0"}, "end_mask": {"i": "0"}}}, {"name": "StatefulPartitionedCall/resize_3/strided_slice_1", "op": "StridedSlice", "input": ["StatefulPartitionedCall/strided_slice", "StatefulPartitionedCall/resize_3/strided_slice_1/stack", "StatefulPartitionedCall/resize_3/strided_slice_1/stack_1", "StatefulPartitionedCall/resize_3/strided_slice_1/stack_2"], "attr": {"T": {"type": "DT_INT32"}, "Index": {"type": "DT_INT32"}, "shrink_axis_mask": {"i": "1"}, "ellipsis_mask": {"i": "0"}, "begin_mask": {"i": "0"}, "new_axis_mask": {"i": "0"}, "end_mask": {"i": "0"}}}, {"name": "StatefulPartitionedCall/resize/unstack", "op": "Unpack", "input": ["StatefulPartitionedCall/resize/Shape"], "attr": {"T": {"type": "DT_INT32"}, "num": {"i": "4"}, "axis": {"i": "0"}}}, {"name": "StatefulPartitionedCall/while/cond/_70/while/Less", "op": "Less", "input": ["StatefulPartitionedCall/while/merge/_145", "StatefulPartitionedCall/while/merge/_146", "^StatefulPartitionedCall/while/merge/_142"], "attr": {"T": {"type": "DT_INT32"}}}, {"name": "StatefulPartitionedCall/resize/size", "op": "Pack", "input": ["StatefulPartitionedCall/mul", "StatefulPartitionedCall/mul"], "attr": {"T": {"type": "DT_INT32"}, "axis": {"i": "0"}, "N": {"i": "2"}}}, {"name": "StatefulPartitionedCall/resize_3/Cast", "op": "Cast", "input": ["StatefulPartitionedCall/resize_3/strided_slice"], "attr": {"SrcT": {"type": "DT_INT32"}, "Truncate": {"b": false}, "DstT": {"type": "DT_FLOAT"}}}, {"name": "StatefulPartitionedCall/resize_3/Cast_2", "op": "Cast", "input": ["StatefulPartitionedCall/resize_3/strided_slice_1"], "attr": {"SrcT": {"type": "DT_INT32"}, "Truncate": {"b": false}, "DstT": {"type": "DT_FLOAT"}}}, {"name": "StatefulPartitionedCall/resize/Cast_4", "op": "Cast", "input": ["StatefulPartitionedCall/resize/unstack:1"], "attr": {"SrcT": {"type": "DT_INT32"}, "Truncate": {"b": false}, "DstT": {"type": "DT_FLOAT"}}}, {"name": "StatefulPartitionedCall/resize/Cast_1", "op": "Cast", "input": ["StatefulPartitionedCall/resize/unstack:1"], "attr": {"SrcT": {"type": "DT_INT32"}, "Truncate": {"b": false}, "DstT": {"type": "DT_FLOAT"}}}, {"name": "StatefulPartitionedCall/resize/Cast_3", "op": "Cast", "input": ["StatefulPartitionedCall/resize/unstack:2"], "attr": {"SrcT": {"type": "DT_INT32"}, "Truncate": {"b": false}, "DstT": {"type": "DT_FLOAT"}}}, {"name": "StatefulPartitionedCall/resize/Cast_6", "op": "Cast", "input": ["StatefulPartitionedCall/resize/unstack:2"], "attr": {"SrcT": {"type": "DT_INT32"}, "Truncate": {"b": false}, "DstT": {"type": "DT_FLOAT"}}}, {"name": "StatefulPartitionedCall/while/LoopCond/_212", "op": "LoopCond", "input": ["StatefulPartitionedCall/while/cond/_70/while/Less"]}, {"name": "StatefulPartitionedCall/resize/strided_slice", "op": "StridedSlice", "input": ["StatefulPartitionedCall/resize/size", "StatefulPartitionedCall/resize/strided_slice/stack", "StatefulPartitionedCall/resize/strided_slice/stack_1", "StatefulPartitionedCall/resize/strided_slice/stack_2"], "attr": {"T": {"type": "DT_INT32"}, "Index": {"type": "DT_INT32"}, "shrink_axis_mask": {"i": "1"}, "ellipsis_mask": {"i": "0"}, "begin_mask": {"i": "0"}, "new_axis_mask": {"i": "0"}, "end_mask": {"i": "0"}}}, {"name": "StatefulPartitionedCall/resize/strided_slice_1", "op": "StridedSlice", "input": ["StatefulPartitionedCall/resize/size", "StatefulPartitionedCall/resize/strided_slice_1/stack", "StatefulPartitionedCall/resize/strided_slice_1/stack_1", "StatefulPartitionedCall/resize/strided_slice_1/stack_2"], "attr": {"T": {"type": "DT_INT32"}, "Index": {"type": "DT_INT32"}, "shrink_axis_mask": {"i": "1"}, "ellipsis_mask": {"i": "0"}, "begin_mask": {"i": "0"}, "new_axis_mask": {"i": "0"}, "end_mask": {"i": "0"}}}, {"name": "StatefulPartitionedCall/while/Func/StatefulPartitionedCall/input/_36_switch/_251", "op": "Switch", "input": ["StatefulPartitionedCall/while/merge/_180", "StatefulPartitionedCall/while/LoopCond/_212"], "attr": {"T": {"type": "DT_FLOAT"}}}, {"name": "StatefulPartitionedCall/while/Func/StatefulPartitionedCall/input/_37_switch/_252", "op": "Switch", "input": ["StatefulPartitionedCall/while/merge/_181", "StatefulPartitionedCall/while/LoopCond/_212"], "attr": {"T": {"type": "DT_FLOAT"}}}, {"name": "StatefulPartitionedCall/while/Func/StatefulPartitionedCall/input/_32_switch/_247", "op": "Switch", "input": ["StatefulPartitionedCall/while/merge/_176", "StatefulPartitionedCall/while/LoopCond/_212"], "attr": {"T": {"type": "DT_FLOAT"}}}, {"name": "StatefulPartitionedCall/while/Func/StatefulPartitionedCall/input/_33_switch/_248", "op": "Switch", "input": ["StatefulPartitionedCall/while/merge/_177", "StatefulPartitionedCall/while/LoopCond/_212"], "attr": {"T": {"type": "DT_FLOAT"}}}, {"name": "StatefulPartitionedCall/while/Func/StatefulPartitionedCall/input/_34_switch/_249", "op": "Switch", "input": ["StatefulPartitionedCall/while/merge/_178", "StatefulPartitionedCall/while/LoopCond/_212"], "attr": {"T": {"type": "DT_FLOAT"}}}, {"name": "StatefulPartitionedCall/while/Func/StatefulPartitionedCall/input/_35_switch/_250", "op": "Switch", "input": ["StatefulPartitionedCall/while/merge/_179", "StatefulPartitionedCall/while/LoopCond/_212"], "attr": {"T": {"type": "DT_FLOAT"}}}, {"name": "StatefulPartitionedCall/while/Func/StatefulPartitionedCall/input/_38_switch/_253", "op": "Switch", "input": ["StatefulPartitionedCall/while/merge/_182", "StatefulPartitionedCall/while/LoopCond/_212"], "attr": {"T": {"type": "DT_FLOAT"}}}, {"name": "StatefulPartitionedCall/while/Func/StatefulPartitionedCall/input/_39_switch/_254", "op": "Switch", "input": ["StatefulPartitionedCall/while/merge/_183", "StatefulPartitionedCall/while/LoopCond/_212"], "attr": {"T": {"type": "DT_FLOAT"}}}, {"name": "StatefulPartitionedCall/while/Func/StatefulPartitionedCall/input/_44_switch/_259", "op": "Switch", "input": ["StatefulPartitionedCall/while/merge/_188", "StatefulPartitionedCall/while/LoopCond/_212"], "attr": {"T": {"type": "DT_FLOAT"}}}, {"name": "StatefulPartitionedCall/while/Func/StatefulPartitionedCall/input/_45_switch/_260", "op": "Switch", "input": ["StatefulPartitionedCall/while/merge/_189", "StatefulPartitionedCall/while/LoopCond/_212"], "attr": {"T": {"type": "DT_FLOAT"}}}, {"name": "StatefulPartitionedCall/while/Func/StatefulPartitionedCall/input/_40_switch/_255", "op": "Switch", "input": ["StatefulPartitionedCall/while/merge/_184", "StatefulPartitionedCall/while/LoopCond/_212"], "attr": {"T": {"type": "DT_FLOAT"}}}, {"name": "StatefulPartitionedCall/while/Func/StatefulPartitionedCall/input/_41_switch/_256", "op": "Switch", "input": ["StatefulPartitionedCall/while/merge/_185", "StatefulPartitionedCall/while/LoopCond/_212"], "attr": {"T": {"type": "DT_FLOAT"}}}, {"name": "StatefulPartitionedCall/while/Func/StatefulPartitionedCall/input/_42_switch/_257", "op": "Switch", "input": ["StatefulPartitionedCall/while/merge/_186", "StatefulPartitionedCall/while/LoopCond/_212"], "attr": {"T": {"type": "DT_FLOAT"}}}, {"name": "StatefulPartitionedCall/while/Func/StatefulPartitionedCall/input/_43_switch/_258", "op": "Switch", "input": ["StatefulPartitionedCall/while/merge/_187", "StatefulPartitionedCall/while/LoopCond/_212"], "attr": {"T": {"type": "DT_FLOAT"}}}, {"name": "StatefulPartitionedCall/while/Func/StatefulPartitionedCall/input/_46_switch/_261", "op": "Switch", "input": ["StatefulPartitionedCall/while/merge/_190", "StatefulPartitionedCall/while/LoopCond/_212"], "attr": {"T": {"type": "DT_FLOAT"}}}, {"name": "StatefulPartitionedCall/while/Func/StatefulPartitionedCall/input/_47_switch/_262", "op": "Switch", "input": ["StatefulPartitionedCall/while/merge/_191", "StatefulPartitionedCall/while/LoopCond/_212"], "attr": {"T": {"type": "DT_FLOAT"}}}, {"name": "StatefulPartitionedCall/while/Func/StatefulPartitionedCall/input/_4_switch/_218", "op": "Switch", "input": ["StatefulPartitionedCall/while/merge/_147", "StatefulPartitionedCall/while/LoopCond/_212"], "attr": {"T": {"type": "DT_FLOAT"}}}, {"name": "StatefulPartitionedCall/while/Func/StatefulPartitionedCall/input/_5_switch/_219", "op": "Switch", "input": ["StatefulPartitionedCall/while/merge/_148", "StatefulPartitionedCall/while/LoopCond/_212"], "attr": {"T": {"type": "DT_FLOAT"}}}, {"name": "StatefulPartitionedCall/while/Func/StatefulPartitionedCall/input/_6_switch/_220", "op": "Switch", "input": ["StatefulPartitionedCall/while/merge/_149", "StatefulPartitionedCall/while/LoopCond/_212"], "attr": {"T": {"type": "DT_FLOAT"}}}, {"name": "StatefulPartitionedCall/while/Func/StatefulPartitionedCall/input/_7_switch/_221", "op": "Switch", "input": ["StatefulPartitionedCall/while/merge/_150", "StatefulPartitionedCall/while/LoopCond/_212"], "attr": {"T": {"type": "DT_FLOAT"}}}, {"name": "StatefulPartitionedCall/while/Func/StatefulPartitionedCall/input/_8_switch/_222", "op": "Switch", "input": ["StatefulPartitionedCall/while/merge/_151", "StatefulPartitionedCall/while/LoopCond/_212"], "attr": {"T": {"type": "DT_FLOAT"}}}, {"name": "StatefulPartitionedCall/while/Func/StatefulPartitionedCall/input/_9_switch/_223", "op": "Switch", "input": ["StatefulPartitionedCall/while/merge/_152", "StatefulPartitionedCall/while/LoopCond/_212"], "attr": {"T": {"type": "DT_FLOAT"}}}, {"name": "StatefulPartitionedCall/while/Func/StatefulPartitionedCall/input/_10_switch/_224", "op": "Switch", "input": ["StatefulPartitionedCall/while/merge/_153", "StatefulPartitionedCall/while/LoopCond/_212"], "attr": {"T": {"type": "DT_FLOAT"}}}, {"name": "StatefulPartitionedCall/while/Func/StatefulPartitionedCall/input/_11_switch/_225", "op": "Switch", "input": ["StatefulPartitionedCall/while/merge/_154", "StatefulPartitionedCall/while/LoopCond/_212"], "attr": {"T": {"type": "DT_FLOAT"}}}, {"name": "StatefulPartitionedCall/while/Func/StatefulPartitionedCall/input/_12_switch/_226", "op": "Switch", "input": ["StatefulPartitionedCall/while/merge/_155", "StatefulPartitionedCall/while/LoopCond/_212"], "attr": {"T": {"type": "DT_FLOAT"}}}, {"name": "StatefulPartitionedCall/while/Func/StatefulPartitionedCall/input/_13_switch/_227", "op": "Switch", "input": ["StatefulPartitionedCall/while/merge/_156", "StatefulPartitionedCall/while/LoopCond/_212"], "attr": {"T": {"type": "DT_FLOAT"}}}, {"name": "StatefulPartitionedCall/while/Func/StatefulPartitionedCall/input/_14_switch/_228", "op": "Switch", "input": ["StatefulPartitionedCall/while/merge/_157", "StatefulPartitionedCall/while/LoopCond/_212"], "attr": {"T": {"type": "DT_FLOAT"}}}, {"name": "StatefulPartitionedCall/while/Func/StatefulPartitionedCall/input/_15_switch/_229", "op": "Switch", "input": ["StatefulPartitionedCall/while/merge/_158", "StatefulPartitionedCall/while/LoopCond/_212"], "attr": {"T": {"type": "DT_FLOAT"}}}, {"name": "StatefulPartitionedCall/while/Func/StatefulPartitionedCall/input/_16_switch/_230", "op": "Switch", "input": ["StatefulPartitionedCall/while/merge/_159", "StatefulPartitionedCall/while/LoopCond/_212"], "attr": {"T": {"type": "DT_FLOAT"}}}, {"name": "StatefulPartitionedCall/while/Func/StatefulPartitionedCall/input/_17_switch/_231", "op": "Switch", "input": ["StatefulPartitionedCall/while/merge/_160", "StatefulPartitionedCall/while/LoopCond/_212"], "attr": {"T": {"type": "DT_FLOAT"}}}, {"name": "StatefulPartitionedCall/while/Func/StatefulPartitionedCall/input/_18_switch/_232", "op": "Switch", "input": ["StatefulPartitionedCall/while/merge/_161", "StatefulPartitionedCall/while/LoopCond/_212"], "attr": {"T": {"type": "DT_FLOAT"}}}, {"name": "StatefulPartitionedCall/while/Func/StatefulPartitionedCall/input/_19_switch/_233", "op": "Switch", "input": ["StatefulPartitionedCall/while/merge/_162", "StatefulPartitionedCall/while/LoopCond/_212"], "attr": {"T": {"type": "DT_FLOAT"}}}, {"name": "StatefulPartitionedCall/while/Func/StatefulPartitionedCall/input/_20_switch/_234", "op": "Switch", "input": ["StatefulPartitionedCall/while/merge/_163", "StatefulPartitionedCall/while/LoopCond/_212"], "attr": {"T": {"type": "DT_FLOAT"}}}, {"name": "StatefulPartitionedCall/while/Func/StatefulPartitionedCall/input/_21_switch/_235", "op": "Switch", "input": ["StatefulPartitionedCall/while/merge/_164", "StatefulPartitionedCall/while/LoopCond/_212"], "attr": {"T": {"type": "DT_FLOAT"}}}, {"name": "StatefulPartitionedCall/while/Func/StatefulPartitionedCall/input/_22_switch/_236", "op": "Switch", "input": ["StatefulPartitionedCall/while/merge/_165", "StatefulPartitionedCall/while/LoopCond/_212"], "attr": {"T": {"type": "DT_FLOAT"}}}, {"name": "StatefulPartitionedCall/while/Func/StatefulPartitionedCall/input/_23_switch/_237", "op": "Switch", "input": ["StatefulPartitionedCall/while/merge/_166", "StatefulPartitionedCall/while/LoopCond/_212"], "attr": {"T": {"type": "DT_FLOAT"}}}, {"name": "StatefulPartitionedCall/while/Func/StatefulPartitionedCall/input/_24_switch/_238", "op": "Switch", "input": ["StatefulPartitionedCall/while/merge/_167", "StatefulPartitionedCall/while/LoopCond/_212"], "attr": {"T": {"type": "DT_FLOAT"}}}, {"name": "StatefulPartitionedCall/while/Func/StatefulPartitionedCall/input/_25_switch/_239", "op": "Switch", "input": ["StatefulPartitionedCall/while/merge/_168", "StatefulPartitionedCall/while/LoopCond/_212"], "attr": {"T": {"type": "DT_FLOAT"}}}, {"name": "StatefulPartitionedCall/while/Func/StatefulPartitionedCall/input/_26_switch/_240", "op": "Switch", "input": ["StatefulPartitionedCall/while/merge/_169", "StatefulPartitionedCall/while/LoopCond/_212"], "attr": {"T": {"type": "DT_FLOAT"}}}, {"name": "StatefulPartitionedCall/while/Func/StatefulPartitionedCall/input/_27_switch/_241", "op": "Switch", "input": ["StatefulPartitionedCall/while/merge/_170", "StatefulPartitionedCall/while/LoopCond/_212"], "attr": {"T": {"type": "DT_FLOAT"}}}, {"name": "StatefulPartitionedCall/while/Func/StatefulPartitionedCall/input/_28_switch/_242", "op": "Switch", "input": ["StatefulPartitionedCall/while/merge/_171", "StatefulPartitionedCall/while/LoopCond/_212"], "attr": {"T": {"type": "DT_FLOAT"}}}, {"name": "StatefulPartitionedCall/while/Func/StatefulPartitionedCall/input/_29_switch/_243", "op": "Switch", "input": ["StatefulPartitionedCall/while/merge/_172", "StatefulPartitionedCall/while/LoopCond/_212"], "attr": {"T": {"type": "DT_FLOAT"}}}, {"name": "StatefulPartitionedCall/while/Func/StatefulPartitionedCall/input/_30_switch/_244", "op": "Switch", "input": ["StatefulPartitionedCall/while/merge/_173", "StatefulPartitionedCall/while/LoopCond/_212"], "attr": {"T": {"type": "DT_FLOAT"}}}, {"name": "StatefulPartitionedCall/while/Func/StatefulPartitionedCall/input/_31_switch/_245", "op": "Switch", "input": ["StatefulPartitionedCall/while/merge/_174", "StatefulPartitionedCall/while/LoopCond/_212"], "attr": {"T": {"type": "DT_FLOAT"}}}, {"name": "StatefulPartitionedCall/while/Func/StatefulPartitionedCall/input/_48_switch/_263", "op": "Switch", "input": ["StatefulPartitionedCall/while/merge/_192", "StatefulPartitionedCall/while/LoopCond/_212"], "attr": {"T": {"type": "DT_FLOAT"}}}, {"name": "StatefulPartitionedCall/while/Func/StatefulPartitionedCall/input/_49_switch/_264", "op": "Switch", "input": ["StatefulPartitionedCall/while/merge/_193", "StatefulPartitionedCall/while/LoopCond/_212"], "attr": {"T": {"type": "DT_FLOAT"}}}, {"name": "StatefulPartitionedCall/while/Func/StatefulPartitionedCall/input/_50_switch/_265", "op": "Switch", "input": ["StatefulPartitionedCall/while/merge/_194", "StatefulPartitionedCall/while/LoopCond/_212"], "attr": {"T": {"type": "DT_FLOAT"}}}, {"name": "StatefulPartitionedCall/while/Func/StatefulPartitionedCall/input/_51_switch/_266", "op": "Switch", "input": ["StatefulPartitionedCall/while/merge/_195", "StatefulPartitionedCall/while/LoopCond/_212"], "attr": {"T": {"type": "DT_FLOAT"}}}, {"name": "StatefulPartitionedCall/while/Func/StatefulPartitionedCall/input/_52_switch/_267", "op": "Switch", "input": ["StatefulPartitionedCall/while/merge/_196", "StatefulPartitionedCall/while/LoopCond/_212"], "attr": {"T": {"type": "DT_FLOAT"}}}, {"name": "StatefulPartitionedCall/while/Func/StatefulPartitionedCall/input/_53_switch/_268", "op": "Switch", "input": ["StatefulPartitionedCall/while/merge/_197", "StatefulPartitionedCall/while/LoopCond/_212"], "attr": {"T": {"type": "DT_FLOAT"}}}, {"name": "StatefulPartitionedCall/while/Func/StatefulPartitionedCall/input/_54_switch/_269", "op": "Switch", "input": ["StatefulPartitionedCall/while/merge/_198", "StatefulPartitionedCall/while/LoopCond/_212"], "attr": {"T": {"type": "DT_FLOAT"}}}, {"name": "StatefulPartitionedCall/while/Func/StatefulPartitionedCall/input/_55_switch/_270", "op": "Switch", "input": ["StatefulPartitionedCall/while/merge/_199", "StatefulPartitionedCall/while/LoopCond/_212"], "attr": {"T": {"type": "DT_FLOAT"}}}, {"name": "StatefulPartitionedCall/while/Func/StatefulPartitionedCall/input/_56_switch/_271", "op": "Switch", "input": ["StatefulPartitionedCall/while/merge/_200", "StatefulPartitionedCall/while/LoopCond/_212"], "attr": {"T": {"type": "DT_FLOAT"}}}, {"name": "StatefulPartitionedCall/while/Func/StatefulPartitionedCall/input/_57_switch/_272", "op": "Switch", "input": ["StatefulPartitionedCall/while/merge/_201", "StatefulPartitionedCall/while/LoopCond/_212"], "attr": {"T": {"type": "DT_FLOAT"}}}, {"name": "StatefulPartitionedCall/while/Func/StatefulPartitionedCall/input/_58_switch/_273", "op": "Switch", "input": ["StatefulPartitionedCall/while/merge/_202", "StatefulPartitionedCall/while/LoopCond/_212"], "attr": {"T": {"type": "DT_FLOAT"}}}, {"name": "StatefulPartitionedCall/while/Func/StatefulPartitionedCall/input/_59_switch/_274", "op": "Switch", "input": ["StatefulPartitionedCall/while/merge/_203", "StatefulPartitionedCall/while/LoopCond/_212"], "attr": {"T": {"type": "DT_FLOAT"}}}, {"name": "StatefulPartitionedCall/while/Func/StatefulPartitionedCall/input/_60_switch/_275", "op": "Switch", "input": ["StatefulPartitionedCall/while/merge/_204", "StatefulPartitionedCall/while/LoopCond/_212"], "attr": {"T": {"type": "DT_FLOAT"}}}, {"name": "StatefulPartitionedCall/while/Func/StatefulPartitionedCall/input/_61_switch/_276", "op": "Switch", "input": ["StatefulPartitionedCall/while/merge/_205", "StatefulPartitionedCall/while/LoopCond/_212"], "attr": {"T": {"type": "DT_FLOAT"}}}, {"name": "StatefulPartitionedCall/while/Func/StatefulPartitionedCall/input/_62_switch/_277", "op": "Switch", "input": ["StatefulPartitionedCall/while/merge/_206", "StatefulPartitionedCall/while/LoopCond/_212"], "attr": {"T": {"type": "DT_FLOAT"}}}, {"name": "StatefulPartitionedCall/while/Func/StatefulPartitionedCall/input/_63_switch/_278", "op": "Switch", "input": ["StatefulPartitionedCall/while/merge/_207", "StatefulPartitionedCall/while/LoopCond/_212"], "attr": {"T": {"type": "DT_FLOAT"}}}, {"name": "StatefulPartitionedCall/while/Func/StatefulPartitionedCall/input/_64_switch/_279", "op": "Switch", "input": ["StatefulPartitionedCall/while/merge/_208", "StatefulPartitionedCall/while/LoopCond/_212"], "attr": {"T": {"type": "DT_FLOAT"}}}, {"name": "StatefulPartitionedCall/while/Func/StatefulPartitionedCall/input/_65_switch/_280", "op": "Switch", "input": ["StatefulPartitionedCall/while/merge/_209", "StatefulPartitionedCall/while/LoopCond/_212"], "attr": {"T": {"type": "DT_FLOAT"}}}, {"name": "StatefulPartitionedCall/while/Func/StatefulPartitionedCall/input/_66_switch/_281", "op": "Switch", "input": ["StatefulPartitionedCall/while/merge/_210", "StatefulPartitionedCall/while/LoopCond/_212"], "attr": {"T": {"type": "DT_FLOAT"}}}, {"name": "StatefulPartitionedCall/while/Func/StatefulPartitionedCall/input/_67_switch/_282", "op": "Switch", "input": ["StatefulPartitionedCall/while/merge/_211", "StatefulPartitionedCall/while/LoopCond/_212"], "attr": {"T": {"type": "DT_FLOAT"}}}, {"name": "StatefulPartitionedCall/while/StatefulPartitionedCall/Const_switch/_216", "op": "Switch", "input": ["StatefulPartitionedCall/while/merge/_145", "StatefulPartitionedCall/while/LoopCond/_212"], "attr": {"T": {"type": "DT_INT32"}}}, {"name": "StatefulPartitionedCall/while/StatefulPartitionedCall/while/loop_counter_switch/_213", "op": "Switch", "input": ["StatefulPartitionedCall/while/merge/_142", "StatefulPartitionedCall/while/LoopCond/_212"], "attr": {"T": {"type": "DT_INT32"}}}, {"name": "StatefulPartitionedCall/while/Func/StatefulPartitionedCall/input/_2_switch/_217", "op": "Switch", "input": ["StatefulPartitionedCall/while/merge/_146", "StatefulPartitionedCall/while/LoopCond/_212"], "attr": {"T": {"type": "DT_INT32"}}}, {"name": "StatefulPartitionedCall/resize/Cast", "op": "Cast", "input": ["StatefulPartitionedCall/resize/strided_slice"], "attr": {"SrcT": {"type": "DT_INT32"}, "Truncate": {"b": false}, "DstT": {"type": "DT_FLOAT"}}}, {"name": "StatefulPartitionedCall/resize/Cast_2", "op": "Cast", "input": ["StatefulPartitionedCall/resize/strided_slice_1"], "attr": {"SrcT": {"type": "DT_INT32"}, "Truncate": {"b": false}, "DstT": {"type": "DT_FLOAT"}}}, {"name": "StatefulPartitionedCall/while/loop_body_control/_283", "op": "Identity", "input": ["StatefulPartitionedCall/while/StatefulPartitionedCall/while/loop_counter_switch/_213:1"], "attr": {"T": {"type": "DT_INT32"}}}, {"name": "StatefulPartitionedCall/resize/truediv", "op": "RealDiv", "input": ["StatefulPartitionedCall/resize/Cast", "StatefulPartitionedCall/resize/Cast_1"], "attr": {"T": {"type": "DT_FLOAT"}}}, {"name": "StatefulPartitionedCall/resize/truediv_1", "op": "RealDiv", "input": ["StatefulPartitionedCall/resize/Cast_2", "StatefulPartitionedCall/resize/Cast_3"], "attr": {"T": {"type": "DT_FLOAT"}}}, {"name": "StatefulPartitionedCall/while/body/_71/while/PartitionedCall_3/PartitionedCall/cond_8/then/_1172/cond_8/transpose", "op": "Const", "input": ["^StatefulPartitionedCall/while/loop_body_control/_283"], "attr": {"value": {"tensor": {"dtype": "DT_INT32", "tensorShape": {"dim": [{"size": "4"}, {"size": "2"}]}}}, "dtype": {"type": "DT_INT32"}}}, {"name": "StatefulPartitionedCall/while/body/_71/while/PartitionedCall_3/PartitionedCall/cond_7/then/_1163/cond_7/transpose", "op": "Const", "input": ["^StatefulPartitionedCall/while/loop_body_control/_283"], "attr": {"value": {"tensor": {"dtype": "DT_INT32", "tensorShape": {"dim": [{"size": "4"}, {"size": "2"}]}}}, "dtype": {"type": "DT_INT32"}}}, {"name": "StatefulPartitionedCall/while/body/_71/while/PartitionedCall_3/PartitionedCall/transpose_25/perm", "op": "Const", "input": ["^StatefulPartitionedCall/while/loop_body_control/_283"], "attr": {"value": {"tensor": {"dtype": "DT_INT32", "tensorShape": {"dim": [{"size": "4"}]}}}, "dtype": {"type": "DT_INT32"}}}, {"name": "StatefulPartitionedCall/while/body/_71/while/PartitionedCall_3/PartitionedCall/strided_slice_4", "op": "Const", "input": ["^StatefulPartitionedCall/while/loop_body_control/_283"], "attr": {"value": {"tensor": {"dtype": "DT_FLOAT", "tensorShape": {"dim": [{"size": "2"}]}}}, "dtype": {"type": "DT_FLOAT"}}}, {"name": "StatefulPartitionedCall/while/body/_71/while/PartitionedCall_3/PartitionedCall/cond_6/then/_1154/cond_6/transpose", "op": "Const", "input": ["^StatefulPartitionedCall/while/loop_body_control/_283"], "attr": {"value": {"tensor": {"dtype": "DT_INT32", "tensorShape": {"dim": [{"size": "4"}, {"size": "2"}]}}}, "dtype": {"type": "DT_INT32"}}}, {"name": "StatefulPartitionedCall/while/body/_71/while/PartitionedCall_3/PartitionedCall/cond_5/then/_1145/cond_5/transpose", "op": "Const", "input": ["^StatefulPartitionedCall/while/loop_body_control/_283"], "attr": {"value": {"tensor": {"dtype": "DT_INT32", "tensorShape": {"dim": [{"size": "4"}, {"size": "2"}]}}}, "dtype": {"type": "DT_INT32"}}}, {"name": "StatefulPartitionedCall/while/body/_71/while/PartitionedCall_3/PartitionedCall/transpose_17/perm", "op": "Const", "input": ["^StatefulPartitionedCall/while/loop_body_control/_283"], "attr": {"value": {"tensor": {"dtype": "DT_INT32", "tensorShape": {"dim": [{"size": "4"}]}}}, "dtype": {"type": "DT_INT32"}}}, {"name": "StatefulPartitionedCall/while/body/_71/while/PartitionedCall_3/PartitionedCall/strided_slice_2", "op": "Const", "input": ["^StatefulPartitionedCall/while/loop_body_control/_283"], "attr": {"value": {"tensor": {"dtype": "DT_FLOAT", "tensorShape": {"dim": [{"size": "2"}]}}}, "dtype": {"type": "DT_FLOAT"}}}, {"name": "StatefulPartitionedCall/while/body/_71/while/PartitionedCall_3/PartitionedCall/cond_4/then/_1136/cond_4/transpose", "op": "Const", "input": ["^StatefulPartitionedCall/while/loop_body_control/_283"], "attr": {"value": {"tensor": {"dtype": "DT_INT32", "tensorShape": {"dim": [{"size": "4"}, {"size": "2"}]}}}, "dtype": {"type": "DT_INT32"}}}, {"name": "StatefulPartitionedCall/while/body/_71/while/PartitionedCall_3/PartitionedCall/cond_3/then/_1127/cond_3/transpose", "op": "Const", "input": ["^StatefulPartitionedCall/while/loop_body_control/_283"], "attr": {"value": {"tensor": {"dtype": "DT_INT32", "tensorShape": {"dim": [{"size": "4"}, {"size": "2"}]}}}, "dtype": {"type": "DT_INT32"}}}, {"name": "StatefulPartitionedCall/while/body/_71/while/PartitionedCall_3/PartitionedCall/cond_2/then/_1118/cond_2/transpose", "op": "Const", "input": ["^StatefulPartitionedCall/while/loop_body_control/_283"], "attr": {"value": {"tensor": {"dtype": "DT_INT32", "tensorShape": {"dim": [{"size": "4"}, {"size": "2"}]}}}, "dtype": {"type": "DT_INT32"}}}, {"name": "StatefulPartitionedCall/while/body/_71/while/PartitionedCall_3/PartitionedCall/cond_1/then/_1109/cond_1/transpose", "op": "Const", "input": ["^StatefulPartitionedCall/while/loop_body_control/_283"], "attr": {"value": {"tensor": {"dtype": "DT_INT32", "tensorShape": {"dim": [{"size": "4"}, {"size": "2"}]}}}, "dtype": {"type": "DT_INT32"}}}, {"name": "StatefulPartitionedCall/while/body/_71/while/PartitionedCall_3/PartitionedCall/transpose_3/perm", "op": "Const", "input": ["^StatefulPartitionedCall/while/loop_body_control/_283"], "attr": {"value": {"tensor": {"dtype": "DT_INT32", "tensorShape": {"dim": [{"size": "4"}]}}}, "dtype": {"type": "DT_INT32"}}}, {"name": "StatefulPartitionedCall/while/body/_71/while/PartitionedCall_3/PartitionedCall/strided_slice", "op": "Const", "input": ["^StatefulPartitionedCall/while/loop_body_control/_283"], "attr": {"value": {"tensor": {"dtype": "DT_FLOAT", "tensorShape": {"dim": [{"size": "2"}]}}}, "dtype": {"type": "DT_FLOAT"}}}, {"name": "StatefulPartitionedCall/while/body/_71/while/PartitionedCall_3/PartitionedCall/cond/then/_1100/cond/transpose", "op": "Const", "input": ["^StatefulPartitionedCall/while/loop_body_control/_283"], "attr": {"value": {"tensor": {"dtype": "DT_INT32", "tensorShape": {"dim": [{"size": "4"}, {"size": "2"}]}}}, "dtype": {"type": "DT_INT32"}}}, {"name": "StatefulPartitionedCall/while/body/_71/while/PartitionedCall_2/PartitionedCall/cond/then/_1091/cond/transpose", "op": "Const", "input": ["^StatefulPartitionedCall/while/loop_body_control/_283"], "attr": {"value": {"tensor": {"dtype": "DT_INT32", "tensorShape": {"dim": [{"size": "4"}, {"size": "2"}]}}}, "dtype": {"type": "DT_INT32"}}}, {"name": "StatefulPartitionedCall/while/body/_71/while/PartitionedCall_2/PartitionedCall/Cast_21", "op": "Const", "input": ["^StatefulPartitionedCall/while/loop_body_control/_283"], "attr": {"value": {"tensor": {"dtype": "DT_INT64", "tensorShape": {"dim": [{"size": "1"}]}}}, "dtype": {"type": "DT_INT64"}}}, {"name": "StatefulPartitionedCall/while/body/_71/while/PartitionedCall_2/PartitionedCall/Cast_20", "op": "Const", "input": ["^StatefulPartitionedCall/while/loop_body_control/_283"], "attr": {"value": {"tensor": {"dtype": "DT_INT64", "tensorShape": {"dim": [{"size": "1"}]}}}, "dtype": {"type": "DT_INT64"}}}, {"name": "StatefulPartitionedCall/while/body/_71/while/PartitionedCall_2/PartitionedCall/transpose_7/perm", "op": "Const", "input": ["^StatefulPartitionedCall/while/loop_body_control/_283"], "attr": {"value": {"tensor": {"dtype": "DT_INT32", "tensorShape": {"dim": [{"size": "4"}]}}}, "dtype": {"type": "DT_INT32"}}}, {"name": "StatefulPartitionedCall/while/next_iteration/_393", "op": "NextIteration", "input": ["StatefulPartitionedCall/while/Func/StatefulPartitionedCall/input/_36_switch/_251:1", "^StatefulPartitionedCall/while/loop_body_control/_283"], "attr": {"T": {"type": "DT_FLOAT"}}}, {"name": "StatefulPartitionedCall/while/body/_71/while/PartitionedCall_2/PartitionedCall/transpose_6/perm", "op": "Const", "input": ["^StatefulPartitionedCall/while/loop_body_control/_283"], "attr": {"value": {"tensor": {"dtype": "DT_INT32", "tensorShape": {"dim": [{"size": "4"}]}}}, "dtype": {"type": "DT_INT32"}}}, {"name": "StatefulPartitionedCall/while/next_iteration/_394", "op": "NextIteration", "input": ["StatefulPartitionedCall/while/Func/StatefulPartitionedCall/input/_37_switch/_252:1", "^StatefulPartitionedCall/while/loop_body_control/_283"], "attr": {"T": {"type": "DT_FLOAT"}}}, {"name": "StatefulPartitionedCall/while/body/_71/while/PartitionedCall_2/PartitionedCall/transpose_8/perm", "op": "Const", "input": ["^StatefulPartitionedCall/while/loop_body_control/_283"], "attr": {"value": {"tensor": {"dtype": "DT_INT32", "tensorShape": {"dim": [{"size": "4"}]}}}, "dtype": {"type": "DT_INT32"}}}, {"name": "StatefulPartitionedCall/while/body/_71/while/PartitionedCall_2/PartitionedCall/SelectV2_9", "op": "Const", "input": ["^StatefulPartitionedCall/while/loop_body_control/_283"], "attr": {"value": {"tensor": {"dtype": "DT_INT64", "tensorShape": {"dim": [{"size": "1"}]}}}, "dtype": {"type": "DT_INT64"}}}, {"name": "StatefulPartitionedCall/while/body/_71/while/PartitionedCall_2/PartitionedCall/zeros_16", "op": "Const", "input": ["^StatefulPartitionedCall/while/loop_body_control/_283"], "attr": {"value": {"tensor": {"dtype": "DT_INT64", "tensorShape": {}}}, "dtype": {"type": "DT_INT64"}}}, {"name": "StatefulPartitionedCall/while/body/_71/while/PartitionedCall_2/PartitionedCall/Const_21", "op": "Const", "input": ["^StatefulPartitionedCall/while/loop_body_control/_283"], "attr": {"value": {"tensor": {"dtype": "DT_INT64", "tensorShape": {}}}, "dtype": {"type": "DT_INT64"}}}, {"name": "StatefulPartitionedCall/while/body/_71/while/PartitionedCall_2/PartitionedCall/Shape_33", "op": "Const", "input": ["^StatefulPartitionedCall/while/loop_body_control/_283"], "attr": {"value": {"tensor": {"dtype": "DT_INT64", "tensorShape": {"dim": [{"size": "1"}]}}}, "dtype": {"type": "DT_INT64"}}}, {"name": "StatefulPartitionedCall/while/body/_71/while/PartitionedCall_2/PartitionedCall/ExpandDims_2", "op": "Const", "input": ["^StatefulPartitionedCall/while/loop_body_control/_283"], "attr": {"value": {"tensor": {"dtype": "DT_INT64", "tensorShape": {"dim": [{"size": "1"}, {"size": "1"}]}}}, "dtype": {"type": "DT_INT64"}}}, {"name": "StatefulPartitionedCall/while/body/_71/while/PartitionedCall_2/PartitionedCall/Cast_19", "op": "Const", "input": ["^StatefulPartitionedCall/while/loop_body_control/_283"], "attr": {"value": {"tensor": {"dtype": "DT_INT64", "tensorShape": {"dim": [{"size": "1"}]}}}, "dtype": {"type": "DT_INT64"}}}, {"name": "StatefulPartitionedCall/while/body/_71/while/PartitionedCall_2/PartitionedCall/SelectV2_10", "op": "Const", "input": ["^StatefulPartitionedCall/while/loop_body_control/_283"], "attr": {"value": {"tensor": {"dtype": "DT_INT64", "tensorShape": {"dim": [{"size": "1"}]}}}, "dtype": {"type": "DT_INT64"}}}, {"name": "StatefulPartitionedCall/while/body/_71/while/PartitionedCall_2/PartitionedCall/Const_20", "op": "Const", "input": ["^StatefulPartitionedCall/while/loop_body_control/_283"], "attr": {"value": {"tensor": {"dtype": "DT_INT64", "tensorShape": {}}}, "dtype": {"type": "DT_INT64"}}}, {"name": "StatefulPartitionedCall/while/body/_71/while/PartitionedCall_2/PartitionedCall/ones_6", "op": "Const", "input": ["^StatefulPartitionedCall/while/loop_body_control/_283"], "attr": {"value": {"tensor": {"dtype": "DT_INT64", "tensorShape": {"dim": [{"size": "1"}]}}}, "dtype": {"type": "DT_INT64"}}}, {"name": "StatefulPartitionedCall/while/body/_71/while/PartitionedCall_2/PartitionedCall/onnx_tf_prefix_Constant_213", "op": "Const", "input": ["^StatefulPartitionedCall/while/loop_body_control/_283"], "attr": {"value": {"tensor": {"dtype": "DT_INT64", "tensorShape": {"dim": [{"size": "1"}]}}}, "dtype": {"type": "DT_INT64"}}}, {"name": "StatefulPartitionedCall/while/body/_71/while/PartitionedCall_2/PartitionedCall/onnx_tf_prefix_Concat_214/axis", "op": "Const", "input": ["^StatefulPartitionedCall/while/loop_body_control/_283"], "attr": {"value": {"tensor": {"dtype": "DT_INT32", "tensorShape": {}}}, "dtype": {"type": "DT_INT32"}}}, {"name": "StatefulPartitionedCall/while/body/_71/while/PartitionedCall_2/PartitionedCall/Const_22", "op": "Const", "input": ["^StatefulPartitionedCall/while/loop_body_control/_283"], "attr": {"value": {"tensor": {"dtype": "DT_INT64", "tensorShape": {}}}, "dtype": {"type": "DT_INT64"}}}, {"name": "StatefulPartitionedCall/while/body/_71/while/PartitionedCall_2/PartitionedCall/GatherV2_14/axis", "op": "Const", "input": ["^StatefulPartitionedCall/while/loop_body_control/_283"], "attr": {"value": {"tensor": {"dtype": "DT_INT32", "tensorShape": {}}}, "dtype": {"type": "DT_INT32"}}}, {"name": "StatefulPartitionedCall/while/body/_71/while/PartitionedCall_2/PartitionedCall/zeros_17", "op": "Const", "input": ["^StatefulPartitionedCall/while/loop_body_control/_283"], "attr": {"value": {"tensor": {"dtype": "DT_INT64", "tensorShape": {}}}, "dtype": {"type": "DT_INT64"}}}, {"name": "StatefulPartitionedCall/while/body/_71/while/PartitionedCall_2/PartitionedCall/Cast_14", "op": "Const", "input": ["^StatefulPartitionedCall/while/loop_body_control/_283"], "attr": {"value": {"tensor": {"dtype": "DT_INT64", "tensorShape": {"dim": [{"size": "1"}]}}}, "dtype": {"type": "DT_INT64"}}}, {"name": "StatefulPartitionedCall/while/body/_71/while/PartitionedCall_2/PartitionedCall/Cast_3", "op": "Const", "input": ["^StatefulPartitionedCall/while/loop_body_control/_283"], "attr": {"value": {"tensor": {"dtype": "DT_INT64", "tensorShape": {"dim": [{"size": "1"}]}}}, "dtype": {"type": "DT_INT64"}}}, {"name": "StatefulPartitionedCall/while/body/_71/while/PartitionedCall_2/PartitionedCall/Cast_2", "op": "Const", "input": ["^StatefulPartitionedCall/while/loop_body_control/_283"], "attr": {"value": {"tensor": {"dtype": "DT_INT64", "tensorShape": {"dim": [{"size": "1"}]}}}, "dtype": {"type": "DT_INT64"}}}, {"name": "StatefulPartitionedCall/while/body/_71/while/PartitionedCall_2/PartitionedCall/onnx_tf_prefix_Unsqueeze_49/dim", "op": "Const", "input": ["^StatefulPartitionedCall/while/loop_body_control/_283"], "attr": {"value": {"tensor": {"dtype": "DT_INT32", "tensorShape": {}}}, "dtype": {"type": "DT_INT32"}}}, {"name": "StatefulPartitionedCall/while/body/_71/while/PartitionedCall_2/PartitionedCall/onnx_tf_prefix_Unsqueeze_50/dim", "op": "Const", "input": ["^StatefulPartitionedCall/while/loop_body_control/_283"], "attr": {"value": {"tensor": {"dtype": "DT_INT32", "tensorShape": {}}}, "dtype": {"type": "DT_INT32"}}}, {"name": "StatefulPartitionedCall/while/body/_71/while/PartitionedCall_2/PartitionedCall/onnx_tf_prefix_Unsqueeze_51", "op": "Const", "input": ["^StatefulPartitionedCall/while/loop_body_control/_283"], "attr": {"value": {"tensor": {"dtype": "DT_INT64", "tensorShape": {"dim": [{"size": "1"}]}}}, "dtype": {"type": "DT_INT64"}}}, {"name": "StatefulPartitionedCall/while/body/_71/while/PartitionedCall_2/PartitionedCall/onnx_tf_prefix_Concat_52/axis", "op": "Const", "input": ["^StatefulPartitionedCall/while/loop_body_control/_283"], "attr": {"value": {"tensor": {"dtype": "DT_INT32", "tensorShape": {}}}, "dtype": {"type": "DT_INT32"}}}, {"name": "StatefulPartitionedCall/while/body/_71/while/PartitionedCall_2/PartitionedCall/Const_3", "op": "Const", "input": ["^StatefulPartitionedCall/while/loop_body_control/_283"], "attr": {"value": {"tensor": {"dtype": "DT_INT64", "tensorShape": {}}}, "dtype": {"type": "DT_INT64"}}}, {"name": "StatefulPartitionedCall/while/body/_71/while/PartitionedCall_2/PartitionedCall/GatherV2_2/axis", "op": "Const", "input": ["^StatefulPartitionedCall/while/loop_body_control/_283"], "attr": {"value": {"tensor": {"dtype": "DT_INT32", "tensorShape": {}}}, "dtype": {"type": "DT_INT32"}}}, {"name": "StatefulPartitionedCall/while/body/_71/while/PartitionedCall_2/PartitionedCall/zeros_2", "op": "Const", "input": ["^StatefulPartitionedCall/while/loop_body_control/_283"], "attr": {"value": {"tensor": {"dtype": "DT_INT64", "tensorShape": {}}}, "dtype": {"type": "DT_INT64"}}}, {"name": "StatefulPartitionedCall/while/body/_71/while/PartitionedCall_2/PartitionedCall/onnx_tf_prefix_ReduceMean_54/reduction_indices", "op": "Const", "input": ["^StatefulPartitionedCall/while/loop_body_control/_283"], "attr": {"value": {"tensor": {"dtype": "DT_INT32", "tensorShape": {}}}, "dtype": {"type": "DT_INT32"}}}, {"name": "StatefulPartitionedCall/while/body/_71/while/PartitionedCall_2/PartitionedCall/onnx_tf_prefix_Unsqueeze_57/dim", "op": "Const", "input": ["^StatefulPartitionedCall/while/loop_body_control/_283"], "attr": {"value": {"tensor": {"dtype": "DT_INT32", "tensorShape": {}}}, "dtype": {"type": "DT_INT32"}}}, {"name": "StatefulPartitionedCall/while/body/_71/while/PartitionedCall_2/PartitionedCall/onnx_tf_prefix_Unsqueeze_58/dim", "op": "Const", "input": ["^StatefulPartitionedCall/while/loop_body_control/_283"], "attr": {"value": {"tensor": {"dtype": "DT_INT32", "tensorShape": {}}}, "dtype": {"type": "DT_INT32"}}}, {"name": "ConstantFolding/StatefulPartitionedCall/while/body/_71/while/PartitionedCall_2/PartitionedCall/onnx_tf_prefix_Concat_61_partial_split_2", "op": "Const", "input": ["^StatefulPartitionedCall/while/loop_body_control/_283"], "attr": {"value": {"tensor": {"dtype": "DT_INT64", "tensorShape": {"dim": [{"size": "2"}]}}}, "dtype": {"type": "DT_INT64"}}}, {"name": "StatefulPartitionedCall/while/body/_71/while/PartitionedCall_2/PartitionedCall/onnx_tf_prefix_Concat_61/axis", "op": "Const", "input": ["^StatefulPartitionedCall/while/loop_body_control/_283"], "attr": {"value": {"tensor": {"dtype": "DT_INT32", "tensorShape": {}}}, "dtype": {"type": "DT_INT32"}}}, {"name": "StatefulPartitionedCall/while/body/_71/while/PartitionedCall_2/PartitionedCall/Const_4", "op": "Const", "input": ["^StatefulPartitionedCall/while/loop_body_control/_283"], "attr": {"value": {"tensor": {"dtype": "DT_INT64", "tensorShape": {}}}, "dtype": {"type": "DT_INT64"}}}, {"name": "StatefulPartitionedCall/while/body/_71/while/PartitionedCall_2/PartitionedCall/GatherV2_3/axis", "op": "Const", "input": ["^StatefulPartitionedCall/while/loop_body_control/_283"], "attr": {"value": {"tensor": {"dtype": "DT_INT32", "tensorShape": {}}}, "dtype": {"type": "DT_INT32"}}}, {"name": "StatefulPartitionedCall/while/body/_71/while/PartitionedCall_2/PartitionedCall/zeros_3", "op": "Const", "input": ["^StatefulPartitionedCall/while/loop_body_control/_283"], "attr": {"value": {"tensor": {"dtype": "DT_INT64", "tensorShape": {}}}, "dtype": {"type": "DT_INT64"}}}, {"name": "StatefulPartitionedCall/while/body/_71/while/PartitionedCall_2/PartitionedCall/onnx_tf_prefix_Mul_73", "op": "Const", "input": ["^StatefulPartitionedCall/while/loop_body_control/_283"], "attr": {"value": {"tensor": {"dtype": "DT_INT64", "tensorShape": {"dim": [{"size": "4"}]}}}, "dtype": {"type": "DT_INT64"}}}, {"name": "StatefulPartitionedCall/while/body/_71/while/PartitionedCall_2/PartitionedCall/onnx_tf_prefix_ConstantOfShape_71", "op": "Const", "input": ["^StatefulPartitionedCall/while/loop_body_control/_283"], "attr": {"value": {"tensor": {"dtype": "DT_INT64", "tensorShape": {"dim": [{"size": "4"}]}}}, "dtype": {"type": "DT_INT64"}}}, {"name": "StatefulPartitionedCall/while/body/_71/while/PartitionedCall_2/PartitionedCall/onnx_tf_prefix_Unsqueeze_63/dim", "op": "Const", "input": ["^StatefulPartitionedCall/while/loop_body_control/_283"], "attr": {"value": {"tensor": {"dtype": "DT_INT32", "tensorShape": {}}}, "dtype": {"type": "DT_INT32"}}}, {"name": "StatefulPartitionedCall/while/body/_71/while/PartitionedCall_2/PartitionedCall/onnx_tf_prefix_Unsqueeze_64/dim", "op": "Const", "input": ["^StatefulPartitionedCall/while/loop_body_control/_283"], "attr": {"value": {"tensor": {"dtype": "DT_INT32", "tensorShape": {}}}, "dtype": {"type": "DT_INT32"}}}, {"name": "StatefulPartitionedCall/while/body/_71/while/PartitionedCall_2/PartitionedCall/onnx_tf_prefix_Unsqueeze_65/dim", "op": "Const", "input": ["^StatefulPartitionedCall/while/loop_body_control/_283"], "attr": {"value": {"tensor": {"dtype": "DT_INT32", "tensorShape": {}}}, "dtype": {"type": "DT_INT32"}}}, {"name": "StatefulPartitionedCall/while/body/_71/while/PartitionedCall_2/PartitionedCall/onnx_tf_prefix_Unsqueeze_66/dim", "op": "Const", "input": ["^StatefulPartitionedCall/while/loop_body_control/_283"], "attr": {"value": {"tensor": {"dtype": "DT_INT32", "tensorShape": {}}}, "dtype": {"type": "DT_INT32"}}}, {"name": "StatefulPartitionedCall/while/body/_71/while/PartitionedCall_2/PartitionedCall/onnx_tf_prefix_Concat_67/axis", "op": "Const", "input": ["^StatefulPartitionedCall/while/loop_body_control/_283"], "attr": {"value": {"tensor": {"dtype": "DT_INT32", "tensorShape": {}}}, "dtype": {"type": "DT_INT32"}}}, {"name": "StatefulPartitionedCall/while/body/_71/while/PartitionedCall_2/PartitionedCall/ones/Const", "op": "Const", "input": ["^StatefulPartitionedCall/while/loop_body_control/_283"], "attr": {"value": {"tensor": {"dtype": "DT_FLOAT", "tensorShape": {}}}, "dtype": {"type": "DT_FLOAT"}}}, {"name": "StatefulPartitionedCall/while/body/_71/while/PartitionedCall_2/PartitionedCall/Cast_1", "op": "Const", "input": ["^StatefulPartitionedCall/while/loop_body_control/_283"], "attr": {"value": {"tensor": {"dtype": "DT_INT64", "tensorShape": {"dim": [{"size": "1"}]}}}, "dtype": {"type": "DT_INT64"}}}, {"name": "StatefulPartitionedCall/while/body/_71/while/PartitionedCall_2/PartitionedCall/onnx_tf_prefix_ReduceMean_24/reduction_indices", "op": "Const", "input": ["^StatefulPartitionedCall/while/loop_body_control/_283"], "attr": {"value": {"tensor": {"dtype": "DT_INT32", "tensorShape": {}}}, "dtype": {"type": "DT_INT32"}}}, {"name": "StatefulPartitionedCall/while/body/_71/while/PartitionedCall_2/PartitionedCall/onnx_tf_prefix_ReduceMean_31/reduction_indices", "op": "Const", "input": ["^StatefulPartitionedCall/while/loop_body_control/_283"], "attr": {"value": {"tensor": {"dtype": "DT_INT32", "tensorShape": {}}}, "dtype": {"type": "DT_INT32"}}}, {"name": "StatefulPartitionedCall/while/body/_71/while/PartitionedCall_2/PartitionedCall/Cast", "op": "Const", "input": ["^StatefulPartitionedCall/while/loop_body_control/_283"], "attr": {"value": {"tensor": {"dtype": "DT_INT64", "tensorShape": {"dim": [{"size": "1"}]}}}, "dtype": {"type": "DT_INT64"}}}, {"name": "StatefulPartitionedCall/while/body/_71/while/PartitionedCall_2/PartitionedCall/onnx_tf_prefix_Unsqueeze_19/dim", "op": "Const", "input": ["^StatefulPartitionedCall/while/loop_body_control/_283"], "attr": {"value": {"tensor": {"dtype": "DT_INT32", "tensorShape": {}}}, "dtype": {"type": "DT_INT32"}}}, {"name": "StatefulPartitionedCall/while/body/_71/while/PartitionedCall_2/PartitionedCall/onnx_tf_prefix_Unsqueeze_20/dim", "op": "Const", "input": ["^StatefulPartitionedCall/while/loop_body_control/_283"], "attr": {"value": {"tensor": {"dtype": "DT_INT32", "tensorShape": {}}}, "dtype": {"type": "DT_INT32"}}}, {"name": "StatefulPartitionedCall/while/body/_71/while/PartitionedCall_2/PartitionedCall/onnx_tf_prefix_Unsqueeze_21", "op": "Const", "input": ["^StatefulPartitionedCall/while/loop_body_control/_283"], "attr": {"value": {"tensor": {"dtype": "DT_INT64", "tensorShape": {"dim": [{"size": "1"}]}}}, "dtype": {"type": "DT_INT64"}}}, {"name": "StatefulPartitionedCall/while/body/_71/while/PartitionedCall_2/PartitionedCall/onnx_tf_prefix_Concat_22/axis", "op": "Const", "input": ["^StatefulPartitionedCall/while/loop_body_control/_283"], "attr": {"value": {"tensor": {"dtype": "DT_INT32", "tensorShape": {}}}, "dtype": {"type": "DT_INT32"}}}, {"name": "StatefulPartitionedCall/while/body/_71/while/PartitionedCall_2/PartitionedCall/Const", "op": "Const", "input": ["^StatefulPartitionedCall/while/loop_body_control/_283"], "attr": {"value": {"tensor": {"dtype": "DT_INT64", "tensorShape": {}}}, "dtype": {"type": "DT_INT64"}}}, {"name": "StatefulPartitionedCall/while/body/_71/while/PartitionedCall_2/PartitionedCall/GatherV2/axis", "op": "Const", "input": ["^StatefulPartitionedCall/while/loop_body_control/_283"], "attr": {"value": {"tensor": {"dtype": "DT_INT32", "tensorShape": {}}}, "dtype": {"type": "DT_INT32"}}}, {"name": "StatefulPartitionedCall/while/body/_71/while/PartitionedCall_2/PartitionedCall/zeros", "op": "Const", "input": ["^StatefulPartitionedCall/while/loop_body_control/_283"], "attr": {"value": {"tensor": {"dtype": "DT_INT64", "tensorShape": {}}}, "dtype": {"type": "DT_INT64"}}}, {"name": "StatefulPartitionedCall/while/body/_71/while/PartitionedCall_2/PartitionedCall/onnx_tf_prefix_Constant_26", "op": "Const", "input": ["^StatefulPartitionedCall/while/loop_body_control/_283"], "attr": {"value": {"tensor": {"dtype": "DT_INT64", "tensorShape": {"dim": [{"size": "1"}]}}}, "dtype": {"type": "DT_INT64"}}}, {"name": "StatefulPartitionedCall/while/body/_71/while/PartitionedCall_2/PartitionedCall/onnx_tf_prefix_Gather_27/axis", "op": "Const", "input": ["^StatefulPartitionedCall/while/loop_body_control/_283"], "attr": {"value": {"tensor": {"dtype": "DT_INT32", "tensorShape": {}}}, "dtype": {"type": "DT_INT32"}}}, {"name": "StatefulPartitionedCall/while/body/_71/while/PartitionedCall_2/PartitionedCall/Const_1", "op": "Const", "input": ["^StatefulPartitionedCall/while/loop_body_control/_283"], "attr": {"value": {"tensor": {"dtype": "DT_INT32", "tensorShape": {"dim": [{"size": "1"}]}}}, "dtype": {"type": "DT_INT32"}}}, {"name": "StatefulPartitionedCall/while/body/_71/while/PartitionedCall_2/PartitionedCall/onnx_tf_prefix_Constant_34", "op": "Const", "input": ["^StatefulPartitionedCall/while/loop_body_control/_283"], "attr": {"value": {"tensor": {"dtype": "DT_FLOAT", "tensorShape": {}}}, "dtype": {"type": "DT_FLOAT"}}}, {"name": "StatefulPartitionedCall/while/body/_71/while/PartitionedCall_2/PartitionedCall/onnx_tf_prefix_Constant_37", "op": "Const", "input": ["^StatefulPartitionedCall/while/loop_body_control/_283"], "attr": {"value": {"tensor": {"dtype": "DT_FLOAT", "tensorShape": {}}}, "dtype": {"type": "DT_FLOAT"}}}, {"name": "StatefulPartitionedCall/while/body/_71/while/PartitionedCall_2/PartitionedCall/onnx_tf_prefix_Constant_13", "op": "Const", "input": ["^StatefulPartitionedCall/while/loop_body_control/_283"], "attr": {"value": {"tensor": {"dtype": "DT_INT64", "tensorShape": {}}}, "dtype": {"type": "DT_INT64"}}}, {"name": "StatefulPartitionedCall/while/body/_71/while/PartitionedCall_2/PartitionedCall/onnx_tf_prefix_Gather_14/axis", "op": "Const", "input": ["^StatefulPartitionedCall/while/loop_body_control/_283"], "attr": {"value": {"tensor": {"dtype": "DT_INT32", "tensorShape": {}}}, "dtype": {"type": "DT_INT32"}}}, {"name": "StatefulPartitionedCall/while/body/_71/while/PartitionedCall_2/PartitionedCall/onnx_tf_prefix_Unsqueeze_42/dim", "op": "Const", "input": ["^StatefulPartitionedCall/while/loop_body_control/_283"], "attr": {"value": {"tensor": {"dtype": "DT_INT32", "tensorShape": {}}}, "dtype": {"type": "DT_INT32"}}}, {"name": "StatefulPartitionedCall/while/body/_71/while/PartitionedCall_2/PartitionedCall/onnx_tf_prefix_Constant_16", "op": "Const", "input": ["^StatefulPartitionedCall/while/loop_body_control/_283"], "attr": {"value": {"tensor": {"dtype": "DT_INT64", "tensorShape": {}}}, "dtype": {"type": "DT_INT64"}}}, {"name": "StatefulPartitionedCall/while/body/_71/while/PartitionedCall_2/PartitionedCall/onnx_tf_prefix_Gather_17/axis", "op": "Const", "input": ["^StatefulPartitionedCall/while/loop_body_control/_283"], "attr": {"value": {"tensor": {"dtype": "DT_INT32", "tensorShape": {}}}, "dtype": {"type": "DT_INT32"}}}, {"name": "StatefulPartitionedCall/while/body/_71/while/PartitionedCall_2/PartitionedCall/onnx_tf_prefix_Unsqueeze_43/dim", "op": "Const", "input": ["^StatefulPartitionedCall/while/loop_body_control/_283"], "attr": {"value": {"tensor": {"dtype": "DT_INT32", "tensorShape": {}}}, "dtype": {"type": "DT_INT32"}}}, {"name": "ConstantFolding/StatefulPartitionedCall/while/body/_71/while/PartitionedCall_2/PartitionedCall/onnx_tf_prefix_Concat_46_partial_split_2", "op": "Const", "input": ["^StatefulPartitionedCall/while/loop_body_control/_283"], "attr": {"value": {"tensor": {"dtype": "DT_INT64", "tensorShape": {"dim": [{"size": "2"}]}}}, "dtype": {"type": "DT_INT64"}}}, {"name": "StatefulPartitionedCall/while/body/_71/while/PartitionedCall_2/PartitionedCall/onnx_tf_prefix_Concat_46/axis", "op": "Const", "input": ["^StatefulPartitionedCall/while/loop_body_control/_283"], "attr": {"value": {"tensor": {"dtype": "DT_INT32", "tensorShape": {}}}, "dtype": {"type": "DT_INT32"}}}, {"name": "StatefulPartitionedCall/while/body/_71/while/PartitionedCall_2/PartitionedCall/Const_2", "op": "Const", "input": ["^StatefulPartitionedCall/while/loop_body_control/_283"], "attr": {"value": {"tensor": {"dtype": "DT_INT64", "tensorShape": {}}}, "dtype": {"type": "DT_INT64"}}}, {"name": "StatefulPartitionedCall/while/body/_71/while/PartitionedCall_2/PartitionedCall/GatherV2_1/axis", "op": "Const", "input": ["^StatefulPartitionedCall/while/loop_body_control/_283"], "attr": {"value": {"tensor": {"dtype": "DT_INT32", "tensorShape": {}}}, "dtype": {"type": "DT_INT32"}}}, {"name": "StatefulPartitionedCall/while/body/_71/while/PartitionedCall_2/PartitionedCall/zeros_1", "op": "Const", "input": ["^StatefulPartitionedCall/while/loop_body_control/_283"], "attr": {"value": {"tensor": {"dtype": "DT_INT64", "tensorShape": {}}}, "dtype": {"type": "DT_INT64"}}}, {"name": "StatefulPartitionedCall/while/body/_71/while/PartitionedCall_2/PartitionedCall/onnx_tf_prefix_Mul_88", "op": "Const", "input": ["^StatefulPartitionedCall/while/loop_body_control/_283"], "attr": {"value": {"tensor": {"dtype": "DT_INT64", "tensorShape": {"dim": [{"size": "4"}]}}}, "dtype": {"type": "DT_INT64"}}}, {"name": "StatefulPartitionedCall/while/body/_71/while/PartitionedCall_2/PartitionedCall/onnx_tf_prefix_ConstantOfShape_86", "op": "Const", "input": ["^StatefulPartitionedCall/while/loop_body_control/_283"], "attr": {"value": {"tensor": {"dtype": "DT_INT64", "tensorShape": {"dim": [{"size": "4"}]}}}, "dtype": {"type": "DT_INT64"}}}, {"name": "StatefulPartitionedCall/while/body/_71/while/PartitionedCall_2/PartitionedCall/onnx_tf_prefix_Constant_1", "op": "Const", "input": ["^StatefulPartitionedCall/while/loop_body_control/_283"], "attr": {"value": {"tensor": {"dtype": "DT_INT64", "tensorShape": {}}}, "dtype": {"type": "DT_INT64"}}}, {"name": "StatefulPartitionedCall/while/body/_71/while/PartitionedCall_2/PartitionedCall/onnx_tf_prefix_Gather_2/axis", "op": "Const", "input": ["^StatefulPartitionedCall/while/loop_body_control/_283"], "attr": {"value": {"tensor": {"dtype": "DT_INT32", "tensorShape": {}}}, "dtype": {"type": "DT_INT32"}}}, {"name": "StatefulPartitionedCall/while/body/_71/while/PartitionedCall_2/PartitionedCall/onnx_tf_prefix_Unsqueeze_78/dim", "op": "Const", "input": ["^StatefulPartitionedCall/while/loop_body_control/_283"], "attr": {"value": {"tensor": {"dtype": "DT_INT32", "tensorShape": {}}}, "dtype": {"type": "DT_INT32"}}}, {"name": "StatefulPartitionedCall/while/body/_71/while/PartitionedCall_2/PartitionedCall/onnx_tf_prefix_Constant_4", "op": "Const", "input": ["^StatefulPartitionedCall/while/loop_body_control/_283"], "attr": {"value": {"tensor": {"dtype": "DT_INT64", "tensorShape": {}}}, "dtype": {"type": "DT_INT64"}}}, {"name": "StatefulPartitionedCall/while/body/_71/while/PartitionedCall_2/PartitionedCall/onnx_tf_prefix_Gather_5/axis", "op": "Const", "input": ["^StatefulPartitionedCall/while/loop_body_control/_283"], "attr": {"value": {"tensor": {"dtype": "DT_INT32", "tensorShape": {}}}, "dtype": {"type": "DT_INT32"}}}, {"name": "StatefulPartitionedCall/while/body/_71/while/PartitionedCall_2/PartitionedCall/onnx_tf_prefix_Unsqueeze_79/dim", "op": "Const", "input": ["^StatefulPartitionedCall/while/loop_body_control/_283"], "attr": {"value": {"tensor": {"dtype": "DT_INT32", "tensorShape": {}}}, "dtype": {"type": "DT_INT32"}}}, {"name": "StatefulPartitionedCall/while/body/_71/while/PartitionedCall_2/PartitionedCall/onnx_tf_prefix_Constant_7", "op": "Const", "input": ["^StatefulPartitionedCall/while/loop_body_control/_283"], "attr": {"value": {"tensor": {"dtype": "DT_INT64", "tensorShape": {}}}, "dtype": {"type": "DT_INT64"}}}, {"name": "StatefulPartitionedCall/while/body/_71/while/PartitionedCall_2/PartitionedCall/onnx_tf_prefix_Gather_8/axis", "op": "Const", "input": ["^StatefulPartitionedCall/while/loop_body_control/_283"], "attr": {"value": {"tensor": {"dtype": "DT_INT32", "tensorShape": {}}}, "dtype": {"type": "DT_INT32"}}}, {"name": "StatefulPartitionedCall/while/body/_71/while/PartitionedCall_2/PartitionedCall/onnx_tf_prefix_Unsqueeze_80/dim", "op": "Const", "input": ["^StatefulPartitionedCall/while/loop_body_control/_283"], "attr": {"value": {"tensor": {"dtype": "DT_INT32", "tensorShape": {}}}, "dtype": {"type": "DT_INT32"}}}, {"name": "StatefulPartitionedCall/while/body/_71/while/PartitionedCall_2/PartitionedCall/onnx_tf_prefix_Constant_10", "op": "Const", "input": ["^StatefulPartitionedCall/while/loop_body_control/_283"], "attr": {"value": {"tensor": {"dtype": "DT_INT64", "tensorShape": {}}}, "dtype": {"type": "DT_INT64"}}}, {"name": "StatefulPartitionedCall/while/body/_71/while/PartitionedCall_2/PartitionedCall/onnx_tf_prefix_Gather_11/axis", "op": "Const", "input": ["^StatefulPartitionedCall/while/loop_body_control/_283"], "attr": {"value": {"tensor": {"dtype": "DT_INT32", "tensorShape": {}}}, "dtype": {"type": "DT_INT32"}}}, {"name": "StatefulPartitionedCall/while/body/_71/while/PartitionedCall_2/PartitionedCall/onnx_tf_prefix_Unsqueeze_81/dim", "op": "Const", "input": ["^StatefulPartitionedCall/while/loop_body_control/_283"], "attr": {"value": {"tensor": {"dtype": "DT_INT32", "tensorShape": {}}}, "dtype": {"type": "DT_INT32"}}}, {"name": "StatefulPartitionedCall/while/body/_71/while/PartitionedCall_2/PartitionedCall/onnx_tf_prefix_Concat_82/axis", "op": "Const", "input": ["^StatefulPartitionedCall/while/loop_body_control/_283"], "attr": {"value": {"tensor": {"dtype": "DT_INT32", "tensorShape": {}}}, "dtype": {"type": "DT_INT32"}}}, {"name": "StatefulPartitionedCall/while/body/_71/while/PartitionedCall_2/PartitionedCall/ones_1/Const", "op": "Const", "input": ["^StatefulPartitionedCall/while/loop_body_control/_283"], "attr": {"value": {"tensor": {"dtype": "DT_FLOAT", "tensorShape": {}}}, "dtype": {"type": "DT_FLOAT"}}}, {"name": "StatefulPartitionedCall/while/body/_71/while/PartitionedCall_2/PartitionedCall/transpose_1/perm", "op": "Const", "input": ["^StatefulPartitionedCall/while/loop_body_control/_283"], "attr": {"value": {"tensor": {"dtype": "DT_INT32", "tensorShape": {"dim": [{"size": "4"}]}}}, "dtype": {"type": "DT_INT32"}}}, {"name": "StatefulPartitionedCall/while/next_iteration/_389", "op": "NextIteration", "input": ["StatefulPartitionedCall/while/Func/StatefulPartitionedCall/input/_32_switch/_247:1", "^StatefulPartitionedCall/while/loop_body_control/_283"], "attr": {"T": {"type": "DT_FLOAT"}}}, {"name": "StatefulPartitionedCall/while/body/_71/while/PartitionedCall_2/PartitionedCall/transpose/perm", "op": "Const", "input": ["^StatefulPartitionedCall/while/loop_body_control/_283"], "attr": {"value": {"tensor": {"dtype": "DT_INT32", "tensorShape": {"dim": [{"size": "4"}]}}}, "dtype": {"type": "DT_INT32"}}}, {"name": "StatefulPartitionedCall/while/next_iteration/_390", "op": "NextIteration", "input": ["StatefulPartitionedCall/while/Func/StatefulPartitionedCall/input/_33_switch/_248:1", "^StatefulPartitionedCall/while/loop_body_control/_283"], "attr": {"T": {"type": "DT_FLOAT"}}}, {"name": "StatefulPartitionedCall/while/body/_71/while/PartitionedCall_2/PartitionedCall/transpose_2/perm", "op": "Const", "input": ["^StatefulPartitionedCall/while/loop_body_control/_283"], "attr": {"value": {"tensor": {"dtype": "DT_INT32", "tensorShape": {"dim": [{"size": "4"}]}}}, "dtype": {"type": "DT_INT32"}}}, {"name": "StatefulPartitionedCall/while/body/_71/while/PartitionedCall_2/PartitionedCall/SelectV2_1", "op": "Const", "input": ["^StatefulPartitionedCall/while/loop_body_control/_283"], "attr": {"value": {"tensor": {"dtype": "DT_INT64", "tensorShape": {"dim": [{"size": "1"}]}}}, "dtype": {"type": "DT_INT64"}}}, {"name": "StatefulPartitionedCall/while/body/_71/while/PartitionedCall_2/PartitionedCall/zeros_12", "op": "Const", "input": ["^StatefulPartitionedCall/while/loop_body_control/_283"], "attr": {"value": {"tensor": {"dtype": "DT_INT64", "tensorShape": {}}}, "dtype": {"type": "DT_INT64"}}}, {"name": "StatefulPartitionedCall/while/body/_71/while/PartitionedCall_2/PartitionedCall/Const_15", "op": "Const", "input": ["^StatefulPartitionedCall/while/loop_body_control/_283"], "attr": {"value": {"tensor": {"dtype": "DT_INT64", "tensorShape": {}}}, "dtype": {"type": "DT_INT64"}}}, {"name": "StatefulPartitionedCall/while/body/_71/while/PartitionedCall_2/PartitionedCall/Shape_27", "op": "Const", "input": ["^StatefulPartitionedCall/while/loop_body_control/_283"], "attr": {"value": {"tensor": {"dtype": "DT_INT64", "tensorShape": {"dim": [{"size": "1"}]}}}, "dtype": {"type": "DT_INT64"}}}, {"name": "StatefulPartitionedCall/while/body/_71/while/PartitionedCall_2/PartitionedCall/ExpandDims", "op": "Const", "input": ["^StatefulPartitionedCall/while/loop_body_control/_283"], "attr": {"value": {"tensor": {"dtype": "DT_INT64", "tensorShape": {"dim": [{"size": "1"}, {"size": "1"}]}}}, "dtype": {"type": "DT_INT64"}}}, {"name": "StatefulPartitionedCall/while/body/_71/while/PartitionedCall_2/PartitionedCall/Cast_13", "op": "Const", "input": ["^StatefulPartitionedCall/while/loop_body_control/_283"], "attr": {"value": {"tensor": {"dtype": "DT_INT64", "tensorShape": {"dim": [{"size": "1"}]}}}, "dtype": {"type": "DT_INT64"}}}, {"name": "StatefulPartitionedCall/while/body/_71/while/PartitionedCall_2/PartitionedCall/SelectV2_2", "op": "Const", "input": ["^StatefulPartitionedCall/while/loop_body_control/_283"], "attr": {"value": {"tensor": {"dtype": "DT_INT64", "tensorShape": {"dim": [{"size": "1"}]}}}, "dtype": {"type": "DT_INT64"}}}, {"name": "StatefulPartitionedCall/while/body/_71/while/PartitionedCall_2/PartitionedCall/Const_14", "op": "Const", "input": ["^StatefulPartitionedCall/while/loop_body_control/_283"], "attr": {"value": {"tensor": {"dtype": "DT_INT64", "tensorShape": {}}}, "dtype": {"type": "DT_INT64"}}}, {"name": "StatefulPartitionedCall/while/body/_71/while/PartitionedCall_2/PartitionedCall/ones_4", "op": "Const", "input": ["^StatefulPartitionedCall/while/loop_body_control/_283"], "attr": {"value": {"tensor": {"dtype": "DT_INT64", "tensorShape": {"dim": [{"size": "1"}]}}}, "dtype": {"type": "DT_INT64"}}}, {"name": "StatefulPartitionedCall/while/body/_71/while/PartitionedCall_2/PartitionedCall/onnx_tf_prefix_Constant_194", "op": "Const", "input": ["^StatefulPartitionedCall/while/loop_body_control/_283"], "attr": {"value": {"tensor": {"dtype": "DT_INT64", "tensorShape": {"dim": [{"size": "1"}]}}}, "dtype": {"type": "DT_INT64"}}}, {"name": "StatefulPartitionedCall/while/body/_71/while/PartitionedCall_2/PartitionedCall/onnx_tf_prefix_Concat_195/axis", "op": "Const", "input": ["^StatefulPartitionedCall/while/loop_body_control/_283"], "attr": {"value": {"tensor": {"dtype": "DT_INT32", "tensorShape": {}}}, "dtype": {"type": "DT_INT32"}}}, {"name": "StatefulPartitionedCall/while/body/_71/while/PartitionedCall_2/PartitionedCall/Const_16", "op": "Const", "input": ["^StatefulPartitionedCall/while/loop_body_control/_283"], "attr": {"value": {"tensor": {"dtype": "DT_INT64", "tensorShape": {}}}, "dtype": {"type": "DT_INT64"}}}, {"name": "StatefulPartitionedCall/while/body/_71/while/PartitionedCall_2/PartitionedCall/GatherV2_12/axis", "op": "Const", "input": ["^StatefulPartitionedCall/while/loop_body_control/_283"], "attr": {"value": {"tensor": {"dtype": "DT_INT32", "tensorShape": {}}}, "dtype": {"type": "DT_INT32"}}}, {"name": "StatefulPartitionedCall/while/body/_71/while/PartitionedCall_2/PartitionedCall/zeros_13", "op": "Const", "input": ["^StatefulPartitionedCall/while/loop_body_control/_283"], "attr": {"value": {"tensor": {"dtype": "DT_INT64", "tensorShape": {}}}, "dtype": {"type": "DT_INT64"}}}, {"name": "StatefulPartitionedCall/while/body/_71/while/PartitionedCall_2/PartitionedCall/Cast_17", "op": "Const", "input": ["^StatefulPartitionedCall/while/loop_body_control/_283"], "attr": {"value": {"tensor": {"dtype": "DT_INT64", "tensorShape": {"dim": [{"size": "1"}]}}}, "dtype": {"type": "DT_INT64"}}}, {"name": "StatefulPartitionedCall/while/body/_71/while/PartitionedCall_2/PartitionedCall/Cast_9", "op": "Const", "input": ["^StatefulPartitionedCall/while/loop_body_control/_283"], "attr": {"value": {"tensor": {"dtype": "DT_INT64", "tensorShape": {"dim": [{"size": "1"}]}}}, "dtype": {"type": "DT_INT64"}}}, {"name": "StatefulPartitionedCall/while/body/_71/while/PartitionedCall_2/PartitionedCall/Cast_8", "op": "Const", "input": ["^StatefulPartitionedCall/while/loop_body_control/_283"], "attr": {"value": {"tensor": {"dtype": "DT_INT64", "tensorShape": {"dim": [{"size": "1"}]}}}, "dtype": {"type": "DT_INT64"}}}, {"name": "StatefulPartitionedCall/while/body/_71/while/PartitionedCall_2/PartitionedCall/onnx_tf_prefix_Unsqueeze_143/dim", "op": "Const", "input": ["^StatefulPartitionedCall/while/loop_body_control/_283"], "attr": {"value": {"tensor": {"dtype": "DT_INT32", "tensorShape": {}}}, "dtype": {"type": "DT_INT32"}}}, {"name": "StatefulPartitionedCall/while/body/_71/while/PartitionedCall_2/PartitionedCall/onnx_tf_prefix_Unsqueeze_144/dim", "op": "Const", "input": ["^StatefulPartitionedCall/while/loop_body_control/_283"], "attr": {"value": {"tensor": {"dtype": "DT_INT32", "tensorShape": {}}}, "dtype": {"type": "DT_INT32"}}}, {"name": "StatefulPartitionedCall/while/body/_71/while/PartitionedCall_2/PartitionedCall/onnx_tf_prefix_Unsqueeze_145", "op": "Const", "input": ["^StatefulPartitionedCall/while/loop_body_control/_283"], "attr": {"value": {"tensor": {"dtype": "DT_INT64", "tensorShape": {"dim": [{"size": "1"}]}}}, "dtype": {"type": "DT_INT64"}}}, {"name": "StatefulPartitionedCall/while/body/_71/while/PartitionedCall_2/PartitionedCall/onnx_tf_prefix_Concat_146/axis", "op": "Const", "input": ["^StatefulPartitionedCall/while/loop_body_control/_283"], "attr": {"value": {"tensor": {"dtype": "DT_INT32", "tensorShape": {}}}, "dtype": {"type": "DT_INT32"}}}, {"name": "StatefulPartitionedCall/while/body/_71/while/PartitionedCall_2/PartitionedCall/Const_10", "op": "Const", "input": ["^StatefulPartitionedCall/while/loop_body_control/_283"], "attr": {"value": {"tensor": {"dtype": "DT_INT64", "tensorShape": {}}}, "dtype": {"type": "DT_INT64"}}}, {"name": "StatefulPartitionedCall/while/body/_71/while/PartitionedCall_2/PartitionedCall/GatherV2_8/axis", "op": "Const", "input": ["^StatefulPartitionedCall/while/loop_body_control/_283"], "attr": {"value": {"tensor": {"dtype": "DT_INT32", "tensorShape": {}}}, "dtype": {"type": "DT_INT32"}}}, {"name": "StatefulPartitionedCall/while/body/_71/while/PartitionedCall_2/PartitionedCall/zeros_8", "op": "Const", "input": ["^StatefulPartitionedCall/while/loop_body_control/_283"], "attr": {"value": {"tensor": {"dtype": "DT_INT64", "tensorShape": {}}}, "dtype": {"type": "DT_INT64"}}}, {"name": "StatefulPartitionedCall/while/body/_71/while/PartitionedCall_2/PartitionedCall/onnx_tf_prefix_ReduceMean_148/reduction_indices", "op": "Const", "input": ["^StatefulPartitionedCall/while/loop_body_control/_283"], "attr": {"value": {"tensor": {"dtype": "DT_INT32", "tensorShape": {}}}, "dtype": {"type": "DT_INT32"}}}, {"name": "StatefulPartitionedCall/while/body/_71/while/PartitionedCall_2/PartitionedCall/onnx_tf_prefix_Unsqueeze_151/dim", "op": "Const", "input": ["^StatefulPartitionedCall/while/loop_body_control/_283"], "attr": {"value": {"tensor": {"dtype": "DT_INT32", "tensorShape": {}}}, "dtype": {"type": "DT_INT32"}}}, {"name": "StatefulPartitionedCall/while/body/_71/while/PartitionedCall_2/PartitionedCall/onnx_tf_prefix_Unsqueeze_152/dim", "op": "Const", "input": ["^StatefulPartitionedCall/while/loop_body_control/_283"], "attr": {"value": {"tensor": {"dtype": "DT_INT32", "tensorShape": {}}}, "dtype": {"type": "DT_INT32"}}}, {"name": "ConstantFolding/StatefulPartitionedCall/while/body/_71/while/PartitionedCall_2/PartitionedCall/onnx_tf_prefix_Concat_155_partial_split_2", "op": "Const", "input": ["^StatefulPartitionedCall/while/loop_body_control/_283"], "attr": {"value": {"tensor": {"dtype": "DT_INT64", "tensorShape": {"dim": [{"size": "2"}]}}}, "dtype": {"type": "DT_INT64"}}}, {"name": "StatefulPartitionedCall/while/body/_71/while/PartitionedCall_2/PartitionedCall/onnx_tf_prefix_Concat_155/axis", "op": "Const", "input": ["^StatefulPartitionedCall/while/loop_body_control/_283"], "attr": {"value": {"tensor": {"dtype": "DT_INT32", "tensorShape": {}}}, "dtype": {"type": "DT_INT32"}}}, {"name": "StatefulPartitionedCall/while/body/_71/while/PartitionedCall_2/PartitionedCall/Const_11", "op": "Const", "input": ["^StatefulPartitionedCall/while/loop_body_control/_283"], "attr": {"value": {"tensor": {"dtype": "DT_INT64", "tensorShape": {}}}, "dtype": {"type": "DT_INT64"}}}, {"name": "StatefulPartitionedCall/while/body/_71/while/PartitionedCall_2/PartitionedCall/GatherV2_9/axis", "op": "Const", "input": ["^StatefulPartitionedCall/while/loop_body_control/_283"], "attr": {"value": {"tensor": {"dtype": "DT_INT32", "tensorShape": {}}}, "dtype": {"type": "DT_INT32"}}}, {"name": "StatefulPartitionedCall/while/body/_71/while/PartitionedCall_2/PartitionedCall/zeros_9", "op": "Const", "input": ["^StatefulPartitionedCall/while/loop_body_control/_283"], "attr": {"value": {"tensor": {"dtype": "DT_INT64", "tensorShape": {}}}, "dtype": {"type": "DT_INT64"}}}, {"name": "StatefulPartitionedCall/while/body/_71/while/PartitionedCall_2/PartitionedCall/onnx_tf_prefix_Mul_167", "op": "Const", "input": ["^StatefulPartitionedCall/while/loop_body_control/_283"], "attr": {"value": {"tensor": {"dtype": "DT_INT64", "tensorShape": {"dim": [{"size": "4"}]}}}, "dtype": {"type": "DT_INT64"}}}, {"name": "StatefulPartitionedCall/while/body/_71/while/PartitionedCall_2/PartitionedCall/onnx_tf_prefix_ConstantOfShape_165", "op": "Const", "input": ["^StatefulPartitionedCall/while/loop_body_control/_283"], "attr": {"value": {"tensor": {"dtype": "DT_INT64", "tensorShape": {"dim": [{"size": "4"}]}}}, "dtype": {"type": "DT_INT64"}}}, {"name": "StatefulPartitionedCall/while/body/_71/while/PartitionedCall_2/PartitionedCall/onnx_tf_prefix_Unsqueeze_157/dim", "op": "Const", "input": ["^StatefulPartitionedCall/while/loop_body_control/_283"], "attr": {"value": {"tensor": {"dtype": "DT_INT32", "tensorShape": {}}}, "dtype": {"type": "DT_INT32"}}}, {"name": "StatefulPartitionedCall/while/body/_71/while/PartitionedCall_2/PartitionedCall/onnx_tf_prefix_Unsqueeze_158/dim", "op": "Const", "input": ["^StatefulPartitionedCall/while/loop_body_control/_283"], "attr": {"value": {"tensor": {"dtype": "DT_INT32", "tensorShape": {}}}, "dtype": {"type": "DT_INT32"}}}, {"name": "StatefulPartitionedCall/while/body/_71/while/PartitionedCall_2/PartitionedCall/onnx_tf_prefix_Unsqueeze_159/dim", "op": "Const", "input": ["^StatefulPartitionedCall/while/loop_body_control/_283"], "attr": {"value": {"tensor": {"dtype": "DT_INT32", "tensorShape": {}}}, "dtype": {"type": "DT_INT32"}}}, {"name": "StatefulPartitionedCall/while/body/_71/while/PartitionedCall_2/PartitionedCall/onnx_tf_prefix_Unsqueeze_160/dim", "op": "Const", "input": ["^StatefulPartitionedCall/while/loop_body_control/_283"], "attr": {"value": {"tensor": {"dtype": "DT_INT32", "tensorShape": {}}}, "dtype": {"type": "DT_INT32"}}}, {"name": "StatefulPartitionedCall/while/body/_71/while/PartitionedCall_2/PartitionedCall/onnx_tf_prefix_Concat_161/axis", "op": "Const", "input": ["^StatefulPartitionedCall/while/loop_body_control/_283"], "attr": {"value": {"tensor": {"dtype": "DT_INT32", "tensorShape": {}}}, "dtype": {"type": "DT_INT32"}}}, {"name": "StatefulPartitionedCall/while/body/_71/while/PartitionedCall_2/PartitionedCall/ones_2/Const", "op": "Const", "input": ["^StatefulPartitionedCall/while/loop_body_control/_283"], "attr": {"value": {"tensor": {"dtype": "DT_FLOAT", "tensorShape": {}}}, "dtype": {"type": "DT_FLOAT"}}}, {"name": "StatefulPartitionedCall/while/body/_71/while/PartitionedCall_2/PartitionedCall/Cast_7", "op": "Const", "input": ["^StatefulPartitionedCall/while/loop_body_control/_283"], "attr": {"value": {"tensor": {"dtype": "DT_INT64", "tensorShape": {"dim": [{"size": "1"}]}}}, "dtype": {"type": "DT_INT64"}}}, {"name": "StatefulPartitionedCall/while/body/_71/while/PartitionedCall_2/PartitionedCall/onnx_tf_prefix_ReduceMean_118/reduction_indices", "op": "Const", "input": ["^StatefulPartitionedCall/while/loop_body_control/_283"], "attr": {"value": {"tensor": {"dtype": "DT_INT32", "tensorShape": {}}}, "dtype": {"type": "DT_INT32"}}}, {"name": "StatefulPartitionedCall/while/body/_71/while/PartitionedCall_2/PartitionedCall/onnx_tf_prefix_ReduceMean_125/reduction_indices", "op": "Const", "input": ["^StatefulPartitionedCall/while/loop_body_control/_283"], "attr": {"value": {"tensor": {"dtype": "DT_INT32", "tensorShape": {}}}, "dtype": {"type": "DT_INT32"}}}, {"name": "StatefulPartitionedCall/while/body/_71/while/PartitionedCall_2/PartitionedCall/Cast_6", "op": "Const", "input": ["^StatefulPartitionedCall/while/loop_body_control/_283"], "attr": {"value": {"tensor": {"dtype": "DT_INT64", "tensorShape": {"dim": [{"size": "1"}]}}}, "dtype": {"type": "DT_INT64"}}}, {"name": "StatefulPartitionedCall/while/body/_71/while/PartitionedCall_2/PartitionedCall/onnx_tf_prefix_Unsqueeze_113/dim", "op": "Const", "input": ["^StatefulPartitionedCall/while/loop_body_control/_283"], "attr": {"value": {"tensor": {"dtype": "DT_INT32", "tensorShape": {}}}, "dtype": {"type": "DT_INT32"}}}, {"name": "StatefulPartitionedCall/while/body/_71/while/PartitionedCall_2/PartitionedCall/onnx_tf_prefix_Unsqueeze_114/dim", "op": "Const", "input": ["^StatefulPartitionedCall/while/loop_body_control/_283"], "attr": {"value": {"tensor": {"dtype": "DT_INT32", "tensorShape": {}}}, "dtype": {"type": "DT_INT32"}}}, {"name": "StatefulPartitionedCall/while/body/_71/while/PartitionedCall_2/PartitionedCall/onnx_tf_prefix_Unsqueeze_115", "op": "Const", "input": ["^StatefulPartitionedCall/while/loop_body_control/_283"], "attr": {"value": {"tensor": {"dtype": "DT_INT64", "tensorShape": {"dim": [{"size": "1"}]}}}, "dtype": {"type": "DT_INT64"}}}, {"name": "StatefulPartitionedCall/while/body/_71/while/PartitionedCall_2/PartitionedCall/onnx_tf_prefix_Concat_116/axis", "op": "Const", "input": ["^StatefulPartitionedCall/while/loop_body_control/_283"], "attr": {"value": {"tensor": {"dtype": "DT_INT32", "tensorShape": {}}}, "dtype": {"type": "DT_INT32"}}}, {"name": "StatefulPartitionedCall/while/body/_71/while/PartitionedCall_2/PartitionedCall/Const_7", "op": "Const", "input": ["^StatefulPartitionedCall/while/loop_body_control/_283"], "attr": {"value": {"tensor": {"dtype": "DT_INT64", "tensorShape": {}}}, "dtype": {"type": "DT_INT64"}}}, {"name": "StatefulPartitionedCall/while/body/_71/while/PartitionedCall_2/PartitionedCall/GatherV2_6/axis", "op": "Const", "input": ["^StatefulPartitionedCall/while/loop_body_control/_283"], "attr": {"value": {"tensor": {"dtype": "DT_INT32", "tensorShape": {}}}, "dtype": {"type": "DT_INT32"}}}, {"name": "StatefulPartitionedCall/while/body/_71/while/PartitionedCall_2/PartitionedCall/zeros_6", "op": "Const", "input": ["^StatefulPartitionedCall/while/loop_body_control/_283"], "attr": {"value": {"tensor": {"dtype": "DT_INT64", "tensorShape": {}}}, "dtype": {"type": "DT_INT64"}}}, {"name": "StatefulPartitionedCall/while/body/_71/while/PartitionedCall_2/PartitionedCall/onnx_tf_prefix_Constant_120", "op": "Const", "input": ["^StatefulPartitionedCall/while/loop_body_control/_283"], "attr": {"value": {"tensor": {"dtype": "DT_INT64", "tensorShape": {"dim": [{"size": "1"}]}}}, "dtype": {"type": "DT_INT64"}}}, {"name": "StatefulPartitionedCall/while/body/_71/while/PartitionedCall_2/PartitionedCall/onnx_tf_prefix_Gather_121/axis", "op": "Const", "input": ["^StatefulPartitionedCall/while/loop_body_control/_283"], "attr": {"value": {"tensor": {"dtype": "DT_INT32", "tensorShape": {}}}, "dtype": {"type": "DT_INT32"}}}, {"name": "StatefulPartitionedCall/while/body/_71/while/PartitionedCall_2/PartitionedCall/Const_8", "op": "Const", "input": ["^StatefulPartitionedCall/while/loop_body_control/_283"], "attr": {"value": {"tensor": {"dtype": "DT_INT32", "tensorShape": {"dim": [{"size": "1"}]}}}, "dtype": {"type": "DT_INT32"}}}, {"name": "StatefulPartitionedCall/while/body/_71/while/PartitionedCall_2/PartitionedCall/onnx_tf_prefix_Constant_128", "op": "Const", "input": ["^StatefulPartitionedCall/while/loop_body_control/_283"], "attr": {"value": {"tensor": {"dtype": "DT_FLOAT", "tensorShape": {}}}, "dtype": {"type": "DT_FLOAT"}}}, {"name": "StatefulPartitionedCall/while/body/_71/while/PartitionedCall_2/PartitionedCall/onnx_tf_prefix_Constant_131", "op": "Const", "input": ["^StatefulPartitionedCall/while/loop_body_control/_283"], "attr": {"value": {"tensor": {"dtype": "DT_FLOAT", "tensorShape": {}}}, "dtype": {"type": "DT_FLOAT"}}}, {"name": "StatefulPartitionedCall/while/body/_71/while/PartitionedCall_2/PartitionedCall/onnx_tf_prefix_Constant_107", "op": "Const", "input": ["^StatefulPartitionedCall/while/loop_body_control/_283"], "attr": {"value": {"tensor": {"dtype": "DT_INT64", "tensorShape": {}}}, "dtype": {"type": "DT_INT64"}}}, {"name": "StatefulPartitionedCall/while/body/_71/while/PartitionedCall_2/PartitionedCall/onnx_tf_prefix_Gather_108/axis", "op": "Const", "input": ["^StatefulPartitionedCall/while/loop_body_control/_283"], "attr": {"value": {"tensor": {"dtype": "DT_INT32", "tensorShape": {}}}, "dtype": {"type": "DT_INT32"}}}, {"name": "StatefulPartitionedCall/while/body/_71/while/PartitionedCall_2/PartitionedCall/onnx_tf_prefix_Unsqueeze_136/dim", "op": "Const", "input": ["^StatefulPartitionedCall/while/loop_body_control/_283"], "attr": {"value": {"tensor": {"dtype": "DT_INT32", "tensorShape": {}}}, "dtype": {"type": "DT_INT32"}}}, {"name": "StatefulPartitionedCall/while/body/_71/while/PartitionedCall_2/PartitionedCall/onnx_tf_prefix_Constant_110", "op": "Const", "input": ["^StatefulPartitionedCall/while/loop_body_control/_283"], "attr": {"value": {"tensor": {"dtype": "DT_INT64", "tensorShape": {}}}, "dtype": {"type": "DT_INT64"}}}, {"name": "StatefulPartitionedCall/while/body/_71/while/PartitionedCall_2/PartitionedCall/onnx_tf_prefix_Gather_111/axis", "op": "Const", "input": ["^StatefulPartitionedCall/while/loop_body_control/_283"], "attr": {"value": {"tensor": {"dtype": "DT_INT32", "tensorShape": {}}}, "dtype": {"type": "DT_INT32"}}}, {"name": "StatefulPartitionedCall/while/body/_71/while/PartitionedCall_2/PartitionedCall/onnx_tf_prefix_Unsqueeze_137/dim", "op": "Const", "input": ["^StatefulPartitionedCall/while/loop_body_control/_283"], "attr": {"value": {"tensor": {"dtype": "DT_INT32", "tensorShape": {}}}, "dtype": {"type": "DT_INT32"}}}, {"name": "ConstantFolding/StatefulPartitionedCall/while/body/_71/while/PartitionedCall_2/PartitionedCall/onnx_tf_prefix_Concat_140_partial_split_2", "op": "Const", "input": ["^StatefulPartitionedCall/while/loop_body_control/_283"], "attr": {"value": {"tensor": {"dtype": "DT_INT64", "tensorShape": {"dim": [{"size": "2"}]}}}, "dtype": {"type": "DT_INT64"}}}, {"name": "StatefulPartitionedCall/while/body/_71/while/PartitionedCall_2/PartitionedCall/onnx_tf_prefix_Concat_140/axis", "op": "Const", "input": ["^StatefulPartitionedCall/while/loop_body_control/_283"], "attr": {"value": {"tensor": {"dtype": "DT_INT32", "tensorShape": {}}}, "dtype": {"type": "DT_INT32"}}}, {"name": "StatefulPartitionedCall/while/body/_71/while/PartitionedCall_2/PartitionedCall/Const_9", "op": "Const", "input": ["^StatefulPartitionedCall/while/loop_body_control/_283"], "attr": {"value": {"tensor": {"dtype": "DT_INT64", "tensorShape": {}}}, "dtype": {"type": "DT_INT64"}}}, {"name": "StatefulPartitionedCall/while/body/_71/while/PartitionedCall_2/PartitionedCall/GatherV2_7/axis", "op": "Const", "input": ["^StatefulPartitionedCall/while/loop_body_control/_283"], "attr": {"value": {"tensor": {"dtype": "DT_INT32", "tensorShape": {}}}, "dtype": {"type": "DT_INT32"}}}, {"name": "StatefulPartitionedCall/while/body/_71/while/PartitionedCall_2/PartitionedCall/zeros_7", "op": "Const", "input": ["^StatefulPartitionedCall/while/loop_body_control/_283"], "attr": {"value": {"tensor": {"dtype": "DT_INT64", "tensorShape": {}}}, "dtype": {"type": "DT_INT64"}}}, {"name": "StatefulPartitionedCall/while/body/_71/while/PartitionedCall_2/PartitionedCall/onnx_tf_prefix_Mul_182", "op": "Const", "input": ["^StatefulPartitionedCall/while/loop_body_control/_283"], "attr": {"value": {"tensor": {"dtype": "DT_INT64", "tensorShape": {"dim": [{"size": "4"}]}}}, "dtype": {"type": "DT_INT64"}}}, {"name": "StatefulPartitionedCall/while/body/_71/while/PartitionedCall_2/PartitionedCall/onnx_tf_prefix_ConstantOfShape_180", "op": "Const", "input": ["^StatefulPartitionedCall/while/loop_body_control/_283"], "attr": {"value": {"tensor": {"dtype": "DT_INT64", "tensorShape": {"dim": [{"size": "4"}]}}}, "dtype": {"type": "DT_INT64"}}}, {"name": "StatefulPartitionedCall/while/body/_71/while/PartitionedCall_2/PartitionedCall/onnx_tf_prefix_Constant_95", "op": "Const", "input": ["^StatefulPartitionedCall/while/loop_body_control/_283"], "attr": {"value": {"tensor": {"dtype": "DT_INT64", "tensorShape": {}}}, "dtype": {"type": "DT_INT64"}}}, {"name": "StatefulPartitionedCall/while/body/_71/while/PartitionedCall_2/PartitionedCall/onnx_tf_prefix_Gather_96/axis", "op": "Const", "input": ["^StatefulPartitionedCall/while/loop_body_control/_283"], "attr": {"value": {"tensor": {"dtype": "DT_INT32", "tensorShape": {}}}, "dtype": {"type": "DT_INT32"}}}, {"name": "StatefulPartitionedCall/while/body/_71/while/PartitionedCall_2/PartitionedCall/onnx_tf_prefix_Unsqueeze_172/dim", "op": "Const", "input": ["^StatefulPartitionedCall/while/loop_body_control/_283"], "attr": {"value": {"tensor": {"dtype": "DT_INT32", "tensorShape": {}}}, "dtype": {"type": "DT_INT32"}}}, {"name": "StatefulPartitionedCall/while/body/_71/while/PartitionedCall_2/PartitionedCall/onnx_tf_prefix_Constant_98", "op": "Const", "input": ["^StatefulPartitionedCall/while/loop_body_control/_283"], "attr": {"value": {"tensor": {"dtype": "DT_INT64", "tensorShape": {}}}, "dtype": {"type": "DT_INT64"}}}, {"name": "StatefulPartitionedCall/while/body/_71/while/PartitionedCall_2/PartitionedCall/onnx_tf_prefix_Gather_99/axis", "op": "Const", "input": ["^StatefulPartitionedCall/while/loop_body_control/_283"], "attr": {"value": {"tensor": {"dtype": "DT_INT32", "tensorShape": {}}}, "dtype": {"type": "DT_INT32"}}}, {"name": "StatefulPartitionedCall/while/body/_71/while/PartitionedCall_2/PartitionedCall/onnx_tf_prefix_Unsqueeze_173/dim", "op": "Const", "input": ["^StatefulPartitionedCall/while/loop_body_control/_283"], "attr": {"value": {"tensor": {"dtype": "DT_INT32", "tensorShape": {}}}, "dtype": {"type": "DT_INT32"}}}, {"name": "StatefulPartitionedCall/while/body/_71/while/PartitionedCall_2/PartitionedCall/onnx_tf_prefix_Constant_101", "op": "Const", "input": ["^StatefulPartitionedCall/while/loop_body_control/_283"], "attr": {"value": {"tensor": {"dtype": "DT_INT64", "tensorShape": {}}}, "dtype": {"type": "DT_INT64"}}}, {"name": "StatefulPartitionedCall/while/body/_71/while/PartitionedCall_2/PartitionedCall/onnx_tf_prefix_Gather_102/axis", "op": "Const", "input": ["^StatefulPartitionedCall/while/loop_body_control/_283"], "attr": {"value": {"tensor": {"dtype": "DT_INT32", "tensorShape": {}}}, "dtype": {"type": "DT_INT32"}}}, {"name": "StatefulPartitionedCall/while/body/_71/while/PartitionedCall_2/PartitionedCall/onnx_tf_prefix_Unsqueeze_174/dim", "op": "Const", "input": ["^StatefulPartitionedCall/while/loop_body_control/_283"], "attr": {"value": {"tensor": {"dtype": "DT_INT32", "tensorShape": {}}}, "dtype": {"type": "DT_INT32"}}}, {"name": "StatefulPartitionedCall/while/body/_71/while/PartitionedCall_2/PartitionedCall/onnx_tf_prefix_Constant_104", "op": "Const", "input": ["^StatefulPartitionedCall/while/loop_body_control/_283"], "attr": {"value": {"tensor": {"dtype": "DT_INT64", "tensorShape": {}}}, "dtype": {"type": "DT_INT64"}}}, {"name": "StatefulPartitionedCall/while/body/_71/while/PartitionedCall_2/PartitionedCall/onnx_tf_prefix_Gather_105/axis", "op": "Const", "input": ["^StatefulPartitionedCall/while/loop_body_control/_283"], "attr": {"value": {"tensor": {"dtype": "DT_INT32", "tensorShape": {}}}, "dtype": {"type": "DT_INT32"}}}, {"name": "StatefulPartitionedCall/while/body/_71/while/PartitionedCall_2/PartitionedCall/onnx_tf_prefix_Unsqueeze_175/dim", "op": "Const", "input": ["^StatefulPartitionedCall/while/loop_body_control/_283"], "attr": {"value": {"tensor": {"dtype": "DT_INT32", "tensorShape": {}}}, "dtype": {"type": "DT_INT32"}}}, {"name": "StatefulPartitionedCall/while/body/_71/while/PartitionedCall_2/PartitionedCall/onnx_tf_prefix_Concat_176/axis", "op": "Const", "input": ["^StatefulPartitionedCall/while/loop_body_control/_283"], "attr": {"value": {"tensor": {"dtype": "DT_INT32", "tensorShape": {}}}, "dtype": {"type": "DT_INT32"}}}, {"name": "StatefulPartitionedCall/while/body/_71/while/PartitionedCall_2/PartitionedCall/ones_3/Const", "op": "Const", "input": ["^StatefulPartitionedCall/while/loop_body_control/_283"], "attr": {"value": {"tensor": {"dtype": "DT_FLOAT", "tensorShape": {}}}, "dtype": {"type": "DT_FLOAT"}}}, {"name": "StatefulPartitionedCall/while/body/_71/while/PartitionedCall_2/PartitionedCall/transpose_4/perm", "op": "Const", "input": ["^StatefulPartitionedCall/while/loop_body_control/_283"], "attr": {"value": {"tensor": {"dtype": "DT_INT32", "tensorShape": {"dim": [{"size": "4"}]}}}, "dtype": {"type": "DT_INT32"}}}, {"name": "StatefulPartitionedCall/while/next_iteration/_391", "op": "NextIteration", "input": ["StatefulPartitionedCall/while/Func/StatefulPartitionedCall/input/_34_switch/_249:1", "^StatefulPartitionedCall/while/loop_body_control/_283"], "attr": {"T": {"type": "DT_FLOAT"}}}, {"name": "StatefulPartitionedCall/while/body/_71/while/PartitionedCall_2/PartitionedCall/transpose_3/perm", "op": "Const", "input": ["^StatefulPartitionedCall/while/loop_body_control/_283"], "attr": {"value": {"tensor": {"dtype": "DT_INT32", "tensorShape": {"dim": [{"size": "4"}]}}}, "dtype": {"type": "DT_INT32"}}}, {"name": "StatefulPartitionedCall/while/next_iteration/_392", "op": "NextIteration", "input": ["StatefulPartitionedCall/while/Func/StatefulPartitionedCall/input/_35_switch/_250:1", "^StatefulPartitionedCall/while/loop_body_control/_283"], "attr": {"T": {"type": "DT_FLOAT"}}}, {"name": "StatefulPartitionedCall/while/body/_71/while/PartitionedCall_2/PartitionedCall/transpose_5/perm", "op": "Const", "input": ["^StatefulPartitionedCall/while/loop_body_control/_283"], "attr": {"value": {"tensor": {"dtype": "DT_INT32", "tensorShape": {"dim": [{"size": "4"}]}}}, "dtype": {"type": "DT_INT32"}}}, {"name": "StatefulPartitionedCall/while/body/_71/while/PartitionedCall_2/PartitionedCall/SelectV2_5", "op": "Const", "input": ["^StatefulPartitionedCall/while/loop_body_control/_283"], "attr": {"value": {"tensor": {"dtype": "DT_INT64", "tensorShape": {"dim": [{"size": "1"}]}}}, "dtype": {"type": "DT_INT64"}}}, {"name": "StatefulPartitionedCall/while/body/_71/while/PartitionedCall_2/PartitionedCall/zeros_14", "op": "Const", "input": ["^StatefulPartitionedCall/while/loop_body_control/_283"], "attr": {"value": {"tensor": {"dtype": "DT_INT64", "tensorShape": {}}}, "dtype": {"type": "DT_INT64"}}}, {"name": "StatefulPartitionedCall/while/body/_71/while/PartitionedCall_2/PartitionedCall/Const_18", "op": "Const", "input": ["^StatefulPartitionedCall/while/loop_body_control/_283"], "attr": {"value": {"tensor": {"dtype": "DT_INT64", "tensorShape": {}}}, "dtype": {"type": "DT_INT64"}}}, {"name": "StatefulPartitionedCall/while/body/_71/while/PartitionedCall_2/PartitionedCall/Shape_30", "op": "Const", "input": ["^StatefulPartitionedCall/while/loop_body_control/_283"], "attr": {"value": {"tensor": {"dtype": "DT_INT64", "tensorShape": {"dim": [{"size": "1"}]}}}, "dtype": {"type": "DT_INT64"}}}, {"name": "StatefulPartitionedCall/while/body/_71/while/PartitionedCall_2/PartitionedCall/ExpandDims_1", "op": "Const", "input": ["^StatefulPartitionedCall/while/loop_body_control/_283"], "attr": {"value": {"tensor": {"dtype": "DT_INT64", "tensorShape": {"dim": [{"size": "1"}, {"size": "1"}]}}}, "dtype": {"type": "DT_INT64"}}}, {"name": "StatefulPartitionedCall/while/body/_71/while/PartitionedCall_2/PartitionedCall/Cast_16", "op": "Const", "input": ["^StatefulPartitionedCall/while/loop_body_control/_283"], "attr": {"value": {"tensor": {"dtype": "DT_INT64", "tensorShape": {"dim": [{"size": "1"}]}}}, "dtype": {"type": "DT_INT64"}}}, {"name": "StatefulPartitionedCall/while/body/_71/while/PartitionedCall_2/PartitionedCall/SelectV2_6", "op": "Const", "input": ["^StatefulPartitionedCall/while/loop_body_control/_283"], "attr": {"value": {"tensor": {"dtype": "DT_INT64", "tensorShape": {"dim": [{"size": "1"}]}}}, "dtype": {"type": "DT_INT64"}}}, {"name": "StatefulPartitionedCall/while/body/_71/while/PartitionedCall_2/PartitionedCall/Const_17", "op": "Const", "input": ["^StatefulPartitionedCall/while/loop_body_control/_283"], "attr": {"value": {"tensor": {"dtype": "DT_INT64", "tensorShape": {}}}, "dtype": {"type": "DT_INT64"}}}, {"name": "StatefulPartitionedCall/while/body/_71/while/PartitionedCall_2/PartitionedCall/ones_5", "op": "Const", "input": ["^StatefulPartitionedCall/while/loop_body_control/_283"], "attr": {"value": {"tensor": {"dtype": "DT_INT64", "tensorShape": {"dim": [{"size": "1"}]}}}, "dtype": {"type": "DT_INT64"}}}, {"name": "StatefulPartitionedCall/while/body/_71/while/PartitionedCall_2/PartitionedCall/onnx_tf_prefix_Constant_203", "op": "Const", "input": ["^StatefulPartitionedCall/while/loop_body_control/_283"], "attr": {"value": {"tensor": {"dtype": "DT_INT64", "tensorShape": {"dim": [{"size": "1"}]}}}, "dtype": {"type": "DT_INT64"}}}, {"name": "StatefulPartitionedCall/while/body/_71/while/PartitionedCall_2/PartitionedCall/onnx_tf_prefix_Concat_204/axis", "op": "Const", "input": ["^StatefulPartitionedCall/while/loop_body_control/_283"], "attr": {"value": {"tensor": {"dtype": "DT_INT32", "tensorShape": {}}}, "dtype": {"type": "DT_INT32"}}}, {"name": "StatefulPartitionedCall/while/body/_71/while/PartitionedCall_2/PartitionedCall/Const_19", "op": "Const", "input": ["^StatefulPartitionedCall/while/loop_body_control/_283"], "attr": {"value": {"tensor": {"dtype": "DT_INT64", "tensorShape": {}}}, "dtype": {"type": "DT_INT64"}}}, {"name": "StatefulPartitionedCall/while/body/_71/while/PartitionedCall_2/PartitionedCall/GatherV2_13/axis", "op": "Const", "input": ["^StatefulPartitionedCall/while/loop_body_control/_283"], "attr": {"value": {"tensor": {"dtype": "DT_INT32", "tensorShape": {}}}, "dtype": {"type": "DT_INT32"}}}, {"name": "StatefulPartitionedCall/while/body/_71/while/PartitionedCall_2/PartitionedCall/zeros_15", "op": "Const", "input": ["^StatefulPartitionedCall/while/loop_body_control/_283"], "attr": {"value": {"tensor": {"dtype": "DT_INT64", "tensorShape": {}}}, "dtype": {"type": "DT_INT64"}}}, {"name": "StatefulPartitionedCall/while/body/_71/while/PartitionedCall_2/PartitionedCall/onnx_tf_prefix_Constant_219", "op": "Const", "input": ["^StatefulPartitionedCall/while/loop_body_control/_283"], "attr": {"value": {"tensor": {"dtype": "DT_INT64", "tensorShape": {}}}, "dtype": {"type": "DT_INT64"}}}, {"name": "StatefulPartitionedCall/while/body/_71/while/PartitionedCall_2/PartitionedCall/onnx_tf_prefix_Gather_220/axis", "op": "Const", "input": ["^StatefulPartitionedCall/while/loop_body_control/_283"], "attr": {"value": {"tensor": {"dtype": "DT_INT32", "tensorShape": {}}}, "dtype": {"type": "DT_INT32"}}}, {"name": "StatefulPartitionedCall/while/body/_71/while/PartitionedCall_2/PartitionedCall/onnx_tf_prefix_Unsqueeze_230/dim", "op": "Const", "input": ["^StatefulPartitionedCall/while/loop_body_control/_283"], "attr": {"value": {"tensor": {"dtype": "DT_INT32", "tensorShape": {}}}, "dtype": {"type": "DT_INT32"}}}, {"name": "StatefulPartitionedCall/while/body/_71/while/PartitionedCall_2/PartitionedCall/onnx_tf_prefix_Constant_222", "op": "Const", "input": ["^StatefulPartitionedCall/while/loop_body_control/_283"], "attr": {"value": {"tensor": {"dtype": "DT_INT64", "tensorShape": {}}}, "dtype": {"type": "DT_INT64"}}}, {"name": "StatefulPartitionedCall/while/body/_71/while/PartitionedCall_2/PartitionedCall/onnx_tf_prefix_Gather_223/axis", "op": "Const", "input": ["^StatefulPartitionedCall/while/loop_body_control/_283"], "attr": {"value": {"tensor": {"dtype": "DT_INT32", "tensorShape": {}}}, "dtype": {"type": "DT_INT32"}}}, {"name": "StatefulPartitionedCall/while/body/_71/while/PartitionedCall_2/PartitionedCall/onnx_tf_prefix_Unsqueeze_231/dim", "op": "Const", "input": ["^StatefulPartitionedCall/while/loop_body_control/_283"], "attr": {"value": {"tensor": {"dtype": "DT_INT32", "tensorShape": {}}}, "dtype": {"type": "DT_INT32"}}}, {"name": "StatefulPartitionedCall/while/body/_71/while/PartitionedCall_2/PartitionedCall/onnx_tf_prefix_Constant_225", "op": "Const", "input": ["^StatefulPartitionedCall/while/loop_body_control/_283"], "attr": {"value": {"tensor": {"dtype": "DT_INT64", "tensorShape": {}}}, "dtype": {"type": "DT_INT64"}}}, {"name": "StatefulPartitionedCall/while/body/_71/while/PartitionedCall_2/PartitionedCall/onnx_tf_prefix_Gather_226/axis", "op": "Const", "input": ["^StatefulPartitionedCall/while/loop_body_control/_283"], "attr": {"value": {"tensor": {"dtype": "DT_INT32", "tensorShape": {}}}, "dtype": {"type": "DT_INT32"}}}, {"name": "StatefulPartitionedCall/while/body/_71/while/PartitionedCall_2/PartitionedCall/onnx_tf_prefix_Unsqueeze_232/dim", "op": "Const", "input": ["^StatefulPartitionedCall/while/loop_body_control/_283"], "attr": {"value": {"tensor": {"dtype": "DT_INT32", "tensorShape": {}}}, "dtype": {"type": "DT_INT32"}}}, {"name": "StatefulPartitionedCall/while/body/_71/while/PartitionedCall_2/PartitionedCall/onnx_tf_prefix_Constant_228", "op": "Const", "input": ["^StatefulPartitionedCall/while/loop_body_control/_283"], "attr": {"value": {"tensor": {"dtype": "DT_INT64", "tensorShape": {}}}, "dtype": {"type": "DT_INT64"}}}, {"name": "StatefulPartitionedCall/while/body/_71/while/PartitionedCall_2/PartitionedCall/onnx_tf_prefix_Gather_229/axis", "op": "Const", "input": ["^StatefulPartitionedCall/while/loop_body_control/_283"], "attr": {"value": {"tensor": {"dtype": "DT_INT32", "tensorShape": {}}}, "dtype": {"type": "DT_INT32"}}}, {"name": "StatefulPartitionedCall/while/body/_71/while/PartitionedCall_2/PartitionedCall/onnx_tf_prefix_Unsqueeze_233/dim", "op": "Const", "input": ["^StatefulPartitionedCall/while/loop_body_control/_283"], "attr": {"value": {"tensor": {"dtype": "DT_INT32", "tensorShape": {}}}, "dtype": {"type": "DT_INT32"}}}, {"name": "StatefulPartitionedCall/while/body/_71/while/PartitionedCall_2/PartitionedCall/onnx_tf_prefix_Concat_234/axis", "op": "Const", "input": ["^StatefulPartitionedCall/while/loop_body_control/_283"], "attr": {"value": {"tensor": {"dtype": "DT_INT32", "tensorShape": {}}}, "dtype": {"type": "DT_INT32"}}}, {"name": "StatefulPartitionedCall/while/body/_71/while/PartitionedCall_2/PartitionedCall/Const_23", "op": "Const", "input": ["^StatefulPartitionedCall/while/loop_body_control/_283"], "attr": {"value": {"tensor": {"dtype": "DT_INT64", "tensorShape": {}}}, "dtype": {"type": "DT_INT64"}}}, {"name": "StatefulPartitionedCall/while/body/_71/while/PartitionedCall_2/PartitionedCall/GatherV2_15/axis", "op": "Const", "input": ["^StatefulPartitionedCall/while/loop_body_control/_283"], "attr": {"value": {"tensor": {"dtype": "DT_INT32", "tensorShape": {}}}, "dtype": {"type": "DT_INT32"}}}, {"name": "StatefulPartitionedCall/while/body/_71/while/PartitionedCall_2/PartitionedCall/zeros_18", "op": "Const", "input": ["^StatefulPartitionedCall/while/loop_body_control/_283"], "attr": {"value": {"tensor": {"dtype": "DT_INT64", "tensorShape": {}}}, "dtype": {"type": "DT_INT64"}}}, {"name": "StatefulPartitionedCall/while/body/_71/while/PartitionedCall_2/PartitionedCall/transpose_10/perm", "op": "Const", "input": ["^StatefulPartitionedCall/while/loop_body_control/_283"], "attr": {"value": {"tensor": {"dtype": "DT_INT32", "tensorShape": {"dim": [{"size": "4"}]}}}, "dtype": {"type": "DT_INT32"}}}, {"name": "StatefulPartitionedCall/while/next_iteration/_395", "op": "NextIteration", "input": ["StatefulPartitionedCall/while/Func/StatefulPartition…
: "StatefulPartitionedCall/while/body/_71/while/PartitionedCall/PartitionedCall/PadV2/paddings/1_1", "shape": [2], "dtype": "int32"}, {"name": "StatefulPartitionedCall/while/body/_71/while/PartitionedCall/PartitionedCall/add_8/y/0", "shape": [], "dtype": "int32"}, {"name": "StatefulPartitionedCall/while/body/_71/while/PartitionedCall/PartitionedCall/strided_slice_1/stack", "shape": [1], "dtype": "int32"}, {"name": "StatefulPartitionedCall/while/body/_71/while/PartitionedCall/PartitionedCall/strided_slice_1/stack_1", "shape": [1], "dtype": "int32"}, {"name": "StatefulPartitionedCall/while/body/_71/while/PartitionedCall/PartitionedCall/strided_slice_1/stack_2", "shape": [1], "dtype": "int32"}, {"name": "StatefulPartitionedCall/while/body/_71/while/PartitionedCall/PartitionedCall/sub/y", "shape": [], "dtype": "int32"}, {"name": "ConstantFolding/StatefulPartitionedCall/while/body/_71/while/PartitionedCall/PartitionedCall/truediv_recip", "shape": [], "dtype": "float32"}, {"name": "StatefulPartitionedCall/while/body/_71/while/PartitionedCall/PartitionedCall/mul/y", "shape": [], "dtype": "int32"}, {"name": "StatefulPartitionedCall/while/body/_71/while/PartitionedCall/PartitionedCall/add_8/y/2", "shape": [], "dtype": "int32"}, {"name": "StatefulPartitionedCall/while/body/_71/while/PartitionedCall/PartitionedCall/cond_1/then/_866/cond_1/transpose", "shape": [4, 2], "dtype": "int32"}, {"name": "StatefulPartitionedCall/while/body/_71/while/PartitionedCall/PartitionedCall/cond/then/_857/cond/transpose", "shape": [4, 2], "dtype": "int32"}, {"name": "StatefulPartitionedCall/while/body/_71/while/PartitionedCall/PartitionedCall/transpose_1/perm", "shape": [4], "dtype": "int32"}, {"name": "StatefulPartitionedCall/while/body/_71/while/PartitionedCall/PartitionedCall/transpose/perm", "shape": [4], "dtype": "int32"}, {"name": "StatefulPartitionedCall/while/body/_71/while/PartitionedCall/PartitionedCall/transpose_2/perm", "shape": [4], "dtype": "int32"}, {"name": "StatefulPartitionedCall/while/body/_71/while/PartitionedCall/PartitionedCall/Const", "shape": [8], "dtype": "int32"}, {"name": "StatefulPartitionedCall/while/body/_71/while/PartitionedCall/PartitionedCall/All", "shape": [], "dtype": "bool"}, {"name": "StatefulPartitionedCall/while/body/_71/while/PartitionedCall/PartitionedCall/transpose_4/perm", "shape": [4], "dtype": "int32"}, {"name": "StatefulPartitionedCall/while/body/_71/while/PartitionedCall/PartitionedCall/transpose_3/perm", "shape": [4], "dtype": "int32"}, {"name": "StatefulPartitionedCall/while/body/_71/while/PartitionedCall/PartitionedCall/transpose_5/perm", "shape": [4], "dtype": "int32"}, {"name": "StatefulPartitionedCall/while/body/_71/while/PartitionedCall/PartitionedCall/Const_2", "shape": [8], "dtype": "int32"}, {"name": "StatefulPartitionedCall/while/body/_71/while/PartitionedCall/PartitionedCall/All_1", "shape": [], "dtype": "bool"}, {"name": "StatefulPartitionedCall/while/body/_71/while/PartitionedCall/PartitionedCall/transpose_7/perm", "shape": [4], "dtype": "int32"}, {"name": "StatefulPartitionedCall/while/body/_71/while/PartitionedCall/PartitionedCall/transpose_6/perm", "shape": [4], "dtype": "int32"}, {"name": "StatefulPartitionedCall/while/body/_71/while/PartitionedCall/PartitionedCall/transpose_8/perm", "shape": [4], "dtype": "int32"}, {"name": "StatefulPartitionedCall/while/body/_71/while/PartitionedCall/PartitionedCall/strided_slice/stack", "shape": [1], "dtype": "int32"}, {"name": "StatefulPartitionedCall/while/body/_71/while/PartitionedCall/PartitionedCall/strided_slice/stack_1", "shape": [1], "dtype": "int32"}, {"name": "StatefulPartitionedCall/while/body/_71/while/PartitionedCall/PartitionedCall/strided_slice/stack_2", "shape": [1], "dtype": "int32"}, {"name": "StatefulPartitionedCall/while/body/_71/while/PartitionedCall/PartitionedCall/strided_slice_4/stack", "shape": [1], "dtype": "int32"}, {"name": "StatefulPartitionedCall/while/body/_71/while/PartitionedCall/PartitionedCall/strided_slice_4/stack_1", "shape": [1], "dtype": "int32"}, {"name": "StatefulPartitionedCall/while/body/_71/while/PartitionedCall/PartitionedCall/strided_slice_4/stack_2", "shape": [1], "dtype": "int32"}, {"name": "StatefulPartitionedCall/while/body/_71/while/PartitionedCall/PartitionedCall/sub_2/y", "shape": [], "dtype": "int32"}, {"name": "ConstantFolding/StatefulPartitionedCall/while/body/_71/while/PartitionedCall/PartitionedCall/truediv_1_recip", "shape": [], "dtype": "float32"}, {"name": "StatefulPartitionedCall/while/body/_71/while/PartitionedCall/PartitionedCall/mul_1/y", "shape": [], "dtype": "int32"}, {"name": "StatefulPartitionedCall/while/body/_71/while/PartitionedCall/PartitionedCall/PadV2/constant_values", "shape": [], "dtype": "float32"}, {"name": "StatefulPartitionedCall/while/body/_71/while/PartitionedCall/PartitionedCall/transpose_9/perm", "shape": [4], "dtype": "int32"}, {"name": "StatefulPartitionedCall/while/body/_71/while/PartitionedCall/PartitionedCall/transpose_10/perm", "shape": [4], "dtype": "int32"}, {"name": "StatefulPartitionedCall/while/body/_71/while/PartitionedCall/PartitionedCall/Const_4", "shape": [8], "dtype": "int32"}, {"name": "StatefulPartitionedCall/while/body/_71/while/PartitionedCall/PartitionedCall/All_2", "shape": [], "dtype": "bool"}, {"name": "StatefulPartitionedCall/while/body/_71/while/PartitionedCall/PartitionedCall/transpose_12/perm", "shape": [4], "dtype": "int32"}, {"name": "StatefulPartitionedCall/while/body/_71/while/PartitionedCall/PartitionedCall/transpose_11/perm", "shape": [4], "dtype": "int32"}, {"name": "StatefulPartitionedCall/while/body/_71/while/PartitionedCall/PartitionedCall/transpose_13/perm", "shape": [4], "dtype": "int32"}, {"name": "StatefulPartitionedCall/while/body/_71/while/PartitionedCall/PartitionedCall/Const_6", "shape": [8], "dtype": "int32"}, {"name": "StatefulPartitionedCall/while/body/_71/while/PartitionedCall/PartitionedCall/All_3", "shape": [], "dtype": "bool"}, {"name": "StatefulPartitionedCall/while/body/_71/while/PartitionedCall/PartitionedCall/transpose_15/perm", "shape": [4], "dtype": "int32"}, {"name": "StatefulPartitionedCall/while/body/_71/while/PartitionedCall/PartitionedCall/transpose_14/perm", "shape": [4], "dtype": "int32"}, {"name": "StatefulPartitionedCall/while/body/_71/while/PartitionedCall/PartitionedCall/transpose_16/perm", "shape": [4], "dtype": "int32"}, {"name": "StatefulPartitionedCall/while/body/_71/while/PartitionedCall/PartitionedCall/strided_slice_11/stack", "shape": [1], "dtype": "int32"}, {"name": "StatefulPartitionedCall/while/body/_71/while/PartitionedCall/PartitionedCall/strided_slice_11/stack_1", "shape": [1], "dtype": "int32"}, {"name": "StatefulPartitionedCall/while/body/_71/while/PartitionedCall/PartitionedCall/strided_slice_11/stack_2", "shape": [1], "dtype": "int32"}, {"name": "StatefulPartitionedCall/while/body/_71/while/PartitionedCall/PartitionedCall/strided_slice_15/stack", "shape": [1], "dtype": "int32"}, {"name": "StatefulPartitionedCall/while/body/_71/while/PartitionedCall/PartitionedCall/strided_slice_15/stack_1", "shape": [1], "dtype": "int32"}, {"name": "StatefulPartitionedCall/while/body/_71/while/PartitionedCall/PartitionedCall/strided_slice_15/stack_2", "shape": [1], "dtype": "int32"}, {"name": "StatefulPartitionedCall/while/body/_71/while/PartitionedCall/PartitionedCall/sub_6/y", "shape": [], "dtype": "int32"}, {"name": "ConstantFolding/StatefulPartitionedCall/while/body/_71/while/PartitionedCall/PartitionedCall/truediv_3_recip", "shape": [], "dtype": "float32"}, {"name": "StatefulPartitionedCall/while/body/_71/while/PartitionedCall/PartitionedCall/mul_3/y", "shape": [], "dtype": "int32"}, {"name": "StatefulPartitionedCall/while/body/_71/while/PartitionedCall/PartitionedCall/PadV2_1/constant_values", "shape": [], "dtype": "float32"}, {"name": "StatefulPartitionedCall/while/body/_71/while/PartitionedCall/PartitionedCall/transpose_17/perm", "shape": [4], "dtype": "int32"}, {"name": "StatefulPartitionedCall/while/body/_71/while/PartitionedCall/PartitionedCall/transpose_18/perm", "shape": [4], "dtype": "int32"}, {"name": "StatefulPartitionedCall/while/body/_71/while/PartitionedCall/PartitionedCall/Const_8", "shape": [8], "dtype": "int32"}, {"name": "StatefulPartitionedCall/while/body/_71/while/PartitionedCall/PartitionedCall/All_4", "shape": [], "dtype": "bool"}, {"name": "StatefulPartitionedCall/while/body/_71/while/PartitionedCall/PartitionedCall/transpose_20/perm", "shape": [4], "dtype": "int32"}, {"name": "StatefulPartitionedCall/while/body/_71/while/PartitionedCall/PartitionedCall/transpose_19/perm", "shape": [4], "dtype": "int32"}, {"name": "StatefulPartitionedCall/while/body/_71/while/PartitionedCall/PartitionedCall/transpose_21/perm", "shape": [4], "dtype": "int32"}, {"name": "StatefulPartitionedCall/while/body/_71/while/PartitionedCall/PartitionedCall/Const_10", "shape": [8], "dtype": "int32"}, {"name": "StatefulPartitionedCall/while/body/_71/while/PartitionedCall/PartitionedCall/All_5", "shape": [], "dtype": "bool"}, {"name": "StatefulPartitionedCall/while/body/_71/while/PartitionedCall/PartitionedCall/transpose_23/perm", "shape": [4], "dtype": "int32"}, {"name": "StatefulPartitionedCall/while/body/_71/while/PartitionedCall/PartitionedCall/transpose_22/perm", "shape": [4], "dtype": "int32"}, {"name": "StatefulPartitionedCall/while/body/_71/while/PartitionedCall/PartitionedCall/transpose_24/perm", "shape": [4], "dtype": "int32"}, {"name": "StatefulPartitionedCall/while/body/_71/while/PartitionedCall/PartitionedCall/Const_12", "shape": [8], "dtype": "int32"}, {"name": "StatefulPartitionedCall/while/body/_71/while/PartitionedCall/PartitionedCall/All_6", "shape": [], "dtype": "bool"}, {"name": "StatefulPartitionedCall/while/body/_71/while/PartitionedCall/PartitionedCall/transpose_26/perm", "shape": [4], "dtype": "int32"}, {"name": "StatefulPartitionedCall/while/body/_71/while/PartitionedCall/PartitionedCall/transpose_25/perm", "shape": [4], "dtype": "int32"}, {"name": "StatefulPartitionedCall/while/body/_71/while/PartitionedCall/PartitionedCall/transpose_27/perm", "shape": [4], "dtype": "int32"}, {"name": "StatefulPartitionedCall/while/body/_71/while/PartitionedCall/PartitionedCall/Const_14", "shape": [8], "dtype": "int32"}, {"name": "StatefulPartitionedCall/while/body/_71/while/PartitionedCall/PartitionedCall/All_7", "shape": [], "dtype": "bool"}, {"name": "StatefulPartitionedCall/while/body/_71/while/PartitionedCall/PartitionedCall/transpose_29/perm", "shape": [4], "dtype": "int32"}, {"name": "StatefulPartitionedCall/while/body/_71/while/PartitionedCall/PartitionedCall/transpose_28/perm", "shape": [4], "dtype": "int32"}, {"name": "StatefulPartitionedCall/while/body/_71/while/PartitionedCall/PartitionedCall/transpose_30/perm", "shape": [4], "dtype": "int32"}, {"name": "StatefulPartitionedCall/while/body/_71/while/PartitionedCall/PartitionedCall/strided_slice_22/stack", "shape": [1], "dtype": "int32"}, {"name": "StatefulPartitionedCall/while/body/_71/while/PartitionedCall/PartitionedCall/strided_slice_22/stack_1", "shape": [1], "dtype": "int32"}, {"name": "StatefulPartitionedCall/while/body/_71/while/PartitionedCall/PartitionedCall/strided_slice_22/stack_2", "shape": [1], "dtype": "int32"}, {"name": "StatefulPartitionedCall/while/body/_71/while/PartitionedCall/PartitionedCall/strided_slice_26/stack", "shape": [1], "dtype": "int32"}, {"name": "StatefulPartitionedCall/while/body/_71/while/PartitionedCall/PartitionedCall/strided_slice_26/stack_1", "shape": [1], "dtype": "int32"}, {"name": "StatefulPartitionedCall/while/body/_71/while/PartitionedCall/PartitionedCall/strided_slice_26/stack_2", "shape": [1], "dtype": "int32"}, {"name": "StatefulPartitionedCall/while/body/_71/while/PartitionedCall/PartitionedCall/sub_10/y", "shape": [], "dtype": "int32"}, {"name": "ConstantFolding/StatefulPartitionedCall/while/body/_71/while/PartitionedCall/PartitionedCall/truediv_5_recip", "shape": [], "dtype": "float32"}, {"name": "StatefulPartitionedCall/while/body/_71/while/PartitionedCall/PartitionedCall/mul_5/y", "shape": [], "dtype": "int32"}, {"name": "StatefulPartitionedCall/while/body/_71/while/PartitionedCall/PartitionedCall/PadV2_2/constant_values", "shape": [], "dtype": "float32"}, {"name": "StatefulPartitionedCall/while/body/_71/while/PartitionedCall/PartitionedCall/transpose_31/perm", "shape": [4], "dtype": "int32"}, {"name": "StatefulPartitionedCall/while/body/_71/while/PartitionedCall/PartitionedCall/transpose_32/perm", "shape": [4], "dtype": "int32"}, {"name": "StatefulPartitionedCall/while/body/_71/while/PartitionedCall/PartitionedCall/Const_16", "shape": [8], "dtype": "int32"}, {"name": "StatefulPartitionedCall/while/body/_71/while/PartitionedCall/PartitionedCall/All_8", "shape": [], "dtype": "bool"}, {"name": "StatefulPartitionedCall/while/body/_71/while/PartitionedCall/PartitionedCall/transpose_34/perm", "shape": [4], "dtype": "int32"}, {"name": "StatefulPartitionedCall/while/body/_71/while/PartitionedCall/PartitionedCall/transpose_33/perm", "shape": [4], "dtype": "int32"}, {"name": "StatefulPartitionedCall/while/body/_71/while/PartitionedCall/PartitionedCall/transpose_35/perm", "shape": [4], "dtype": "int32"}, {"name": "StatefulPartitionedCall/while/body/_71/while/PartitionedCall/PartitionedCall/Const_18", "shape": [8], "dtype": "int32"}, {"name": "StatefulPartitionedCall/while/body/_71/while/PartitionedCall/PartitionedCall/All_9", "shape": [], "dtype": "bool"}, {"name": "StatefulPartitionedCall/while/body/_71/while/PartitionedCall/PartitionedCall/transpose_37/perm", "shape": [4], "dtype": "int32"}, {"name": "StatefulPartitionedCall/while/body/_71/while/PartitionedCall/PartitionedCall/transpose_36/perm", "shape": [4], "dtype": "int32"}, {"name": "StatefulPartitionedCall/while/body/_71/while/PartitionedCall/PartitionedCall/transpose_38/perm", "shape": [4], "dtype": "int32"}, {"name": "StatefulPartitionedCall/while/body/_71/while/PartitionedCall/PartitionedCall/Const_20", "shape": [8], "dtype": "int32"}, {"name": "StatefulPartitionedCall/while/body/_71/while/PartitionedCall/PartitionedCall/All_10", "shape": [], "dtype": "bool"}, {"name": "StatefulPartitionedCall/while/body/_71/while/PartitionedCall/PartitionedCall/transpose_40/perm", "shape": [4], "dtype": "int32"}, {"name": "StatefulPartitionedCall/while/body/_71/while/PartitionedCall/PartitionedCall/transpose_39/perm", "shape": [4], "dtype": "int32"}, {"name": "StatefulPartitionedCall/while/body/_71/while/PartitionedCall/PartitionedCall/transpose_41/perm", "shape": [4], "dtype": "int32"}, {"name": "StatefulPartitionedCall/while/body/_71/while/PartitionedCall/PartitionedCall/Const_22", "shape": [8], "dtype": "int32"}, {"name": "StatefulPartitionedCall/while/body/_71/while/PartitionedCall/PartitionedCall/All_11", "shape": [], "dtype": "bool"}, {"name": "StatefulPartitionedCall/while/body/_71/while/PartitionedCall/PartitionedCall/transpose_43/perm", "shape": [4], "dtype": "int32"}, {"name": "StatefulPartitionedCall/while/body/_71/while/PartitionedCall/PartitionedCall/transpose_42/perm", "shape": [4], "dtype": "int32"}, {"name": "StatefulPartitionedCall/while/body/_71/while/PartitionedCall/PartitionedCall/transpose_44/perm", "shape": [4], "dtype": "int32"}, {"name": "StatefulPartitionedCall/while/body/_71/while/PartitionedCall/PartitionedCall/strided_slice_33/stack", "shape": [1], "dtype": "int32"}, {"name": "StatefulPartitionedCall/while/body/_71/while/PartitionedCall/PartitionedCall/strided_slice_33/stack_1", "shape": [1], "dtype": "int32"}, {"name": "StatefulPartitionedCall/while/body/_71/while/PartitionedCall/PartitionedCall/strided_slice_33/stack_2", "shape": [1], "dtype": "int32"}, {"name": "StatefulPartitionedCall/while/body/_71/while/PartitionedCall/PartitionedCall/strided_slice_37/stack", "shape": [1], "dtype": "int32"}, {"name": "StatefulPartitionedCall/while/body/_71/while/PartitionedCall/PartitionedCall/strided_slice_37/stack_1", "shape": [1], "dtype": "int32"}, {"name": "StatefulPartitionedCall/while/body/_71/while/PartitionedCall/PartitionedCall/strided_slice_37/stack_2", "shape": [1], "dtype": "int32"}, {"name": "StatefulPartitionedCall/while/body/_71/while/PartitionedCall/PartitionedCall/sub_14/y", "shape": [], "dtype": "int32"}, {"name": "ConstantFolding/StatefulPartitionedCall/while/body/_71/while/PartitionedCall/PartitionedCall/truediv_7_recip", "shape": [], "dtype": "float32"}, {"name": "StatefulPartitionedCall/while/body/_71/while/PartitionedCall/PartitionedCall/mul_7/y", "shape": [], "dtype": "int32"}, {"name": "StatefulPartitionedCall/while/body/_71/while/PartitionedCall/PartitionedCall/PadV2_3/constant_values", "shape": [], "dtype": "float32"}, {"name": "StatefulPartitionedCall/while/body/_71/while/PartitionedCall/PartitionedCall/transpose_45/perm", "shape": [4], "dtype": "int32"}, {"name": "StatefulPartitionedCall/while/body/_71/while/PartitionedCall/PartitionedCall/transpose_46/perm", "shape": [4], "dtype": "int32"}, {"name": "StatefulPartitionedCall/while/body/_71/while/PartitionedCall/PartitionedCall/Const_24", "shape": [8], "dtype": "int32"}, {"name": "StatefulPartitionedCall/while/body/_71/while/PartitionedCall/PartitionedCall/All_12", "shape": [], "dtype": "bool"}, {"name": "StatefulPartitionedCall/while/body/_71/while/PartitionedCall/PartitionedCall/transpose_48/perm", "shape": [4], "dtype": "int32"}, {"name": "StatefulPartitionedCall/while/body/_71/while/PartitionedCall/PartitionedCall/transpose_47/perm", "shape": [4], "dtype": "int32"}, {"name": "StatefulPartitionedCall/while/body/_71/while/PartitionedCall/PartitionedCall/transpose_49/perm", "shape": [4], "dtype": "int32"}, {"name": "StatefulPartitionedCall/while/body/_71/while/PartitionedCall_2/PartitionedCall/strided_slice_1/stack", "shape": [1], "dtype": "int32"}, {"name": "StatefulPartitionedCall/while/body/_71/while/PartitionedCall_2/PartitionedCall/strided_slice_1/stack_1", "shape": [1], "dtype": "int32"}, {"name": "StatefulPartitionedCall/while/body/_71/while/PartitionedCall_2/PartitionedCall/strided_slice_1/stack_2", "shape": [1], "dtype": "int32"}, {"name": "StatefulPartitionedCall/while/body/_71/while/PartitionedCall_2/PartitionedCall/transpose_25/perm", "shape": [4], "dtype": "int32"}, {"name": "StatefulPartitionedCall/while/body/_71/while/PartitionedCall_2/PartitionedCall/Const_48", "shape": [8], "dtype": "int32"}, {"name": "StatefulPartitionedCall/while/body/_71/while/PartitionedCall_2/PartitionedCall/All", "shape": [], "dtype": "bool"}, {"name": "StatefulPartitionedCall/while/body/_71/while/PartitionedCall_2/PartitionedCall/transpose_27/perm", "shape": [4], "dtype": "int32"}, {"name": "StatefulPartitionedCall/while/body/_71/while/PartitionedCall_2/PartitionedCall/transpose_26/perm", "shape": [4], "dtype": "int32"}, {"name": "StatefulPartitionedCall/while/body/_71/while/PartitionedCall_2/PartitionedCall/transpose_28/perm", "shape": [4], "dtype": "int32"}, {"name": "StatefulPartitionedCall/while/body/_71/while/PartitionedCall_3/PartitionedCall/Const", "shape": [8], "dtype": "int32"}, {"name": "StatefulPartitionedCall/while/body/_71/while/PartitionedCall_3/PartitionedCall/All", "shape": [], "dtype": "bool"}, {"name": "StatefulPartitionedCall/while/body/_71/while/PartitionedCall_3/PartitionedCall/transpose_1/perm", "shape": [4], "dtype": "int32"}, {"name": "StatefulPartitionedCall/while/body/_71/while/PartitionedCall_3/PartitionedCall/transpose/perm", "shape": [4], "dtype": "int32"}, {"name": "StatefulPartitionedCall/while/body/_71/while/PartitionedCall_3/PartitionedCall/transpose_2/perm", "shape": [4], "dtype": "int32"}, {"name": "StatefulPartitionedCall/while/body/_71/while/PartitionedCall_3/PartitionedCall/strided_slice_1/stack", "shape": [1], "dtype": "int32"}, {"name": "StatefulPartitionedCall/while/body/_71/while/PartitionedCall_3/PartitionedCall/strided_slice_1/stack_1", "shape": [1], "dtype": "int32"}, {"name": "StatefulPartitionedCall/while/body/_71/while/PartitionedCall_3/PartitionedCall/strided_slice_1/stack_2", "shape": [1], "dtype": "int32"}, {"name": "StatefulPartitionedCall/while/body/_71/while/PartitionedCall_3/PartitionedCall/transpose_4/perm", "shape": [4], "dtype": "int32"}, {"name": "StatefulPartitionedCall/while/body/_71/while/PartitionedCall_3/PartitionedCall/Const_2", "shape": [8], "dtype": "int32"}, {"name": "StatefulPartitionedCall/while/body/_71/while/PartitionedCall_3/PartitionedCall/All_1", "shape": [], "dtype": "bool"}, {"name": "StatefulPartitionedCall/while/body/_71/while/PartitionedCall_3/PartitionedCall/transpose_6/perm", "shape": [4], "dtype": "int32"}, {"name": "StatefulPartitionedCall/while/body/_71/while/PartitionedCall_3/PartitionedCall/transpose_5/perm", "shape": [4], "dtype": "int32"}, {"name": "StatefulPartitionedCall/while/body/_71/while/PartitionedCall_3/PartitionedCall/transpose_7/perm", "shape": [4], "dtype": "int32"}, {"name": "StatefulPartitionedCall/while/body/_71/while/PartitionedCall_3/PartitionedCall/Const_4", "shape": [8], "dtype": "int32"}, {"name": "StatefulPartitionedCall/while/body/_71/while/PartitionedCall_3/PartitionedCall/All_2", "shape": [], "dtype": "bool"}, {"name": "StatefulPartitionedCall/while/body/_71/while/PartitionedCall_3/PartitionedCall/transpose_9/perm", "shape": [4], "dtype": "int32"}, {"name": "StatefulPartitionedCall/while/body/_71/while/PartitionedCall_3/PartitionedCall/transpose_8/perm", "shape": [4], "dtype": "int32"}, {"name": "StatefulPartitionedCall/while/body/_71/while/PartitionedCall_3/PartitionedCall/transpose_10/perm", "shape": [4], "dtype": "int32"}, {"name": "StatefulPartitionedCall/while/body/_71/while/PartitionedCall_3/PartitionedCall/Const_6", "shape": [8], "dtype": "int32"}, {"name": "StatefulPartitionedCall/while/body/_71/while/PartitionedCall_3/PartitionedCall/All_3", "shape": [], "dtype": "bool"}, {"name": "StatefulPartitionedCall/while/body/_71/while/PartitionedCall_3/PartitionedCall/transpose_12/perm", "shape": [4], "dtype": "int32"}, {"name": "StatefulPartitionedCall/while/body/_71/while/PartitionedCall_3/PartitionedCall/transpose_11/perm", "shape": [4], "dtype": "int32"}, {"name": "StatefulPartitionedCall/while/body/_71/while/PartitionedCall_3/PartitionedCall/transpose_13/perm", "shape": [4], "dtype": "int32"}, {"name": "StatefulPartitionedCall/while/body/_71/while/PartitionedCall_3/PartitionedCall/Const_8", "shape": [8], "dtype": "int32"}, {"name": "StatefulPartitionedCall/while/body/_71/while/PartitionedCall_3/PartitionedCall/All_4", "shape": [], "dtype": "bool"}, {"name": "StatefulPartitionedCall/while/body/_71/while/PartitionedCall_3/PartitionedCall/transpose_15/perm", "shape": [4], "dtype": "int32"}, {"name": "StatefulPartitionedCall/while/body/_71/while/PartitionedCall_3/PartitionedCall/transpose_14/perm", "shape": [4], "dtype": "int32"}, {"name": "StatefulPartitionedCall/while/body/_71/while/PartitionedCall_3/PartitionedCall/transpose_16/perm", "shape": [4], "dtype": "int32"}, {"name": "StatefulPartitionedCall/while/body/_71/while/PartitionedCall_3/PartitionedCall/strided_slice_3/stack", "shape": [1], "dtype": "int32"}, {"name": "StatefulPartitionedCall/while/body/_71/while/PartitionedCall_3/PartitionedCall/strided_slice_3/stack_1", "shape": [1], "dtype": "int32"}, {"name": "StatefulPartitionedCall/while/body/_71/while/PartitionedCall_3/PartitionedCall/strided_slice_3/stack_2", "shape": [1], "dtype": "int32"}, {"name": "StatefulPartitionedCall/while/body/_71/while/PartitionedCall_3/PartitionedCall/transpose_18/perm", "shape": [4], "dtype": "int32"}, {"name": "StatefulPartitionedCall/while/body/_71/while/PartitionedCall_3/PartitionedCall/Const_10", "shape": [8], "dtype": "int32"}, {"name": "StatefulPartitionedCall/while/body/_71/while/PartitionedCall_3/PartitionedCall/All_5", "shape": [], "dtype": "bool"}, {"name": "StatefulPartitionedCall/while/body/_71/while/PartitionedCall_3/PartitionedCall/transpose_20/perm", "shape": [4], "dtype": "int32"}, {"name": "StatefulPartitionedCall/while/body/_71/while/PartitionedCall_3/PartitionedCall/transpose_19/perm", "shape": [4], "dtype": "int32"}, {"name": "StatefulPartitionedCall/while/body/_71/while/PartitionedCall_3/PartitionedCall/transpose_21/perm", "shape": [4], "dtype": "int32"}, {"name": "StatefulPartitionedCall/while/body/_71/while/PartitionedCall_3/PartitionedCall/Const_12", "shape": [8], "dtype": "int32"}, {"name": "StatefulPartitionedCall/while/body/_71/while/PartitionedCall_3/PartitionedCall/All_6", "shape": [], "dtype": "bool"}, {"name": "StatefulPartitionedCall/while/body/_71/while/PartitionedCall_3/PartitionedCall/transpose_23/perm", "shape": [4], "dtype": "int32"}, {"name": "StatefulPartitionedCall/while/body/_71/while/PartitionedCall_3/PartitionedCall/transpose_22/perm", "shape": [4], "dtype": "int32"}, {"name": "StatefulPartitionedCall/while/body/_71/while/PartitionedCall_3/PartitionedCall/transpose_24/perm", "shape": [4], "dtype": "int32"}, {"name": "StatefulPartitionedCall/while/body/_71/while/PartitionedCall_3/PartitionedCall/strided_slice_5/stack", "shape": [1], "dtype": "int32"}, {"name": "StatefulPartitionedCall/while/body/_71/while/PartitionedCall_3/PartitionedCall/strided_slice_5/stack_1", "shape": [1], "dtype": "int32"}, {"name": "StatefulPartitionedCall/while/body/_71/while/PartitionedCall_3/PartitionedCall/strided_slice_5/stack_2", "shape": [1], "dtype": "int32"}, {"name": "StatefulPartitionedCall/while/body/_71/while/PartitionedCall_3/PartitionedCall/transpose_26/perm", "shape": [4], "dtype": "int32"}, {"name": "StatefulPartitionedCall/while/body/_71/while/PartitionedCall_3/PartitionedCall/Const_14", "shape": [8], "dtype": "int32"}, {"name": "StatefulPartitionedCall/while/body/_71/while/PartitionedCall_3/PartitionedCall/All_7", "shape": [], "dtype": "bool"}, {"name": "StatefulPartitionedCall/while/body/_71/while/PartitionedCall_3/PartitionedCall/transpose_28/perm", "shape": [4], "dtype": "int32"}, {"name": "StatefulPartitionedCall/while/body/_71/while/PartitionedCall_3/PartitionedCall/transpose_27/perm", "shape": [4], "dtype": "int32"}, {"name": "StatefulPartitionedCall/while/body/_71/while/PartitionedCall_3/PartitionedCall/transpose_29/perm", "shape": [4], "dtype": "int32"}, {"name": "StatefulPartitionedCall/while/body/_71/while/PartitionedCall_3/PartitionedCall/Const_16", "shape": [8], "dtype": "int32"}, {"name": "StatefulPartitionedCall/while/body/_71/while/PartitionedCall_3/PartitionedCall/All_8", "shape": [], "dtype": "bool"}, {"name": "StatefulPartitionedCall/while/body/_71/while/PartitionedCall_3/PartitionedCall/transpose_31/perm", "shape": [4], "dtype": "int32"}, {"name": "StatefulPartitionedCall/while/body/_71/while/PartitionedCall_3/PartitionedCall/transpose_30/perm", "shape": [4], "dtype": "int32"}, {"name": "StatefulPartitionedCall/while/body/_71/while/PartitionedCall_3/PartitionedCall/transpose_32/perm", "shape": [4], "dtype": "int32"}, {"name": "StatefulPartitionedCall/while/body/_71/while/clip_by_value/Minimum/y", "shape": [], "dtype": "float32"}, {"name": "StatefulPartitionedCall/while/body/_71/while/clip_by_value/y", "shape": [], "dtype": "float32"}, {"name": "StatefulPartitionedCall/while/body/_71/while/add/y", "shape": [], "dtype": "int32"}, {"name": "StatefulPartitionedCall/while/body/_71/while/add_1/y", "shape": [], "dtype": "int32"}, {"name": "StatefulPartitionedCall/while/body/_71/while/PartitionedCall_1/PartitionedCall/cond/else/_975/cond/range_1", "shape": [4], "dtype": "int32"}, {"name": "StatefulPartitionedCall/while/body/_71/while/PartitionedCall_1/PartitionedCall/cond/else/_975/cond/GatherV2_1/axis", "shape": [], "dtype": "int32"}, {"name": "StatefulPartitionedCall/while/body/_71/while/PartitionedCall_1/PartitionedCall/cond/else/_975/cond/range", "shape": [4], "dtype": "int32"}, {"name": "StatefulPartitionedCall/while/body/_71/while/PartitionedCall_1/PartitionedCall/cond/else/_975/cond/GatherV2/axis", "shape": [], "dtype": "int32"}, {"name": "StatefulPartitionedCall/while/body/_71/while/PartitionedCall_1/PartitionedCall/cond_1/else/_984/cond_1/range_1", "shape": [4], "dtype": "int32"}, {"name": "StatefulPartitionedCall/while/body/_71/while/PartitionedCall_1/PartitionedCall/cond_1/else/_984/cond_1/GatherV2_1/axis", "shape": [], "dtype": "int32"}, {"name": "StatefulPartitionedCall/while/body/_71/while/PartitionedCall_1/PartitionedCall/cond_1/else/_984/cond_1/range", "shape": [4], "dtype": "int32"}, {"name": "StatefulPartitionedCall/while/body/_71/while/PartitionedCall_1/PartitionedCall/cond_1/else/_984/cond_1/GatherV2/axis", "shape": [], "dtype": "int32"}, {"name": "StatefulPartitionedCall/while/body/_71/while/PartitionedCall_1/PartitionedCall/cond_2/else/_993/cond_2/range_1", "shape": [4], "dtype": "int32"}, {"name": "StatefulPartitionedCall/while/body/_71/while/PartitionedCall_1/PartitionedCall/cond_2/else/_993/cond_2/GatherV2_1/axis", "shape": [], "dtype": "int32"}, {"name": "StatefulPartitionedCall/while/body/_71/while/PartitionedCall_1/PartitionedCall/cond_2/else/_993/cond_2/range", "shape": [4], "dtype": "int32"}, {"name": "StatefulPartitionedCall/while/body/_71/while/PartitionedCall_1/PartitionedCall/cond_2/else/_993/cond_2/GatherV2/axis", "shape": [], "dtype": "int32"}, {"name": "StatefulPartitionedCall/while/body/_71/while/PartitionedCall_1/PartitionedCall/cond_3/else/_1002/cond_3/range_1", "shape": [4], "dtype": "int32"}, {"name": "StatefulPartitionedCall/while/body/_71/while/PartitionedCall_1/PartitionedCall/cond_3/else/_1002/cond_3/GatherV2_1/axis", "shape": [], "dtype": "int32"}, {"name": "StatefulPartitionedCall/while/body/_71/while/PartitionedCall_1/PartitionedCall/cond_3/else/_1002/cond_3/range", "shape": [4], "dtype": "int32"}, {"name": "StatefulPartitionedCall/while/body/_71/while/PartitionedCall_1/PartitionedCall/cond_3/else/_1002/cond_3/GatherV2/axis", "shape": [], "dtype": "int32"}, {"name": "StatefulPartitionedCall/while/body/_71/while/PartitionedCall_1/PartitionedCall/cond_4/else/_1011/cond_4/range_1", "shape": [4], "dtype": "int32"}, {"name": "StatefulPartitionedCall/while/body/_71/while/PartitionedCall_1/PartitionedCall/cond_4/else/_1011/cond_4/GatherV2_1/axis", "shape": [], "dtype": "int32"}, {"name": "StatefulPartitionedCall/while/body/_71/while/PartitionedCall_1/PartitionedCall/cond_4/else/_1011/cond_4/range", "shape": [4], "dtype": "int32"}, {"name": "StatefulPartitionedCall/while/body/_71/while/PartitionedCall_1/PartitionedCall/cond_4/else/_1011/cond_4/GatherV2/axis", "shape": [], "dtype": "int32"}, {"name": "StatefulPartitionedCall/while/body/_71/while/PartitionedCall_1/PartitionedCall/cond_5/else/_1020/cond_5/range_1", "shape": [4], "dtype": "int32"}, {"name": "StatefulPartitionedCall/while/body/_71/while/PartitionedCall_1/PartitionedCall/cond_5/else/_1020/cond_5/GatherV2_1/axis", "shape": [], "dtype": "int32"}, {"name": "StatefulPartitionedCall/while/body/_71/while/PartitionedCall_1/PartitionedCall/cond_5/else/_1020/cond_5/range", "shape": [4], "dtype": "int32"}, {"name": "StatefulPartitionedCall/while/body/_71/while/PartitionedCall_1/PartitionedCall/cond_5/else/_1020/cond_5/GatherV2/axis", "shape": [], "dtype": "int32"}, {"name": "StatefulPartitionedCall/while/body/_71/while/PartitionedCall_1/PartitionedCall/cond_6/else/_1029/cond_6/range_1", "shape": [4], "dtype": "int32"}, {"name": "StatefulPartitionedCall/while/body/_71/while/PartitionedCall_1/PartitionedCall/cond_6/else/_1029/cond_6/GatherV2_1/axis", "shape": [], "dtype": "int32"}, {"name": "StatefulPartitionedCall/while/body/_71/while/PartitionedCall_1/PartitionedCall/cond_6/else/_1029/cond_6/range", "shape": [4], "dtype": "int32"}, {"name": "StatefulPartitionedCall/while/body/_71/while/PartitionedCall_1/PartitionedCall/cond_6/else/_1029/cond_6/GatherV2/axis", "shape": [], "dtype": "int32"}, {"name": "StatefulPartitionedCall/while/body/_71/while/PartitionedCall_1/PartitionedCall/cond_7/else/_1038/cond_7/range_1", "shape": [4], "dtype": "int32"}, {"name": "StatefulPartitionedCall/while/body/_71/while/PartitionedCall_1/PartitionedCall/cond_7/else/_1038/cond_7/GatherV2_1/axis", "shape": [], "dtype": "int32"}, {"name": "StatefulPartitionedCall/while/body/_71/while/PartitionedCall_1/PartitionedCall/cond_7/else/_1038/cond_7/range", "shape": [4], "dtype": "int32"}, {"name": "StatefulPartitionedCall/while/body/_71/while/PartitionedCall_1/PartitionedCall/cond_7/else/_1038/cond_7/GatherV2/axis", "shape": [], "dtype": "int32"}, {"name": "StatefulPartitionedCall/while/body/_71/while/PartitionedCall_1/PartitionedCall/cond_8/else/_1047/cond_8/range_1", "shape": [4], "dtype": "int32"}, {"name": "StatefulPartitionedCall/while/body/_71/while/PartitionedCall_1/PartitionedCall/cond_8/else/_1047/cond_8/GatherV2_1/axis", "shape": [], "dtype": "int32"}, {"name": "StatefulPartitionedCall/while/body/_71/while/PartitionedCall_1/PartitionedCall/cond_8/else/_1047/cond_8/range", "shape": [4], "dtype": "int32"}, {"name": "StatefulPartitionedCall/while/body/_71/while/PartitionedCall_1/PartitionedCall/cond_8/else/_1047/cond_8/GatherV2/axis", "shape": [], "dtype": "int32"}, {"name": "StatefulPartitionedCall/while/body/_71/while/PartitionedCall_1/PartitionedCall/cond_9/else/_1056/cond_9/range_1", "shape": [4], "dtype": "int32"}, {"name": "StatefulPartitionedCall/while/body/_71/while/PartitionedCall_1/PartitionedCall/cond_9/else/_1056/cond_9/GatherV2_1/axis", "shape": [], "dtype": "int32"}, {"name": "StatefulPartitionedCall/while/body/_71/while/PartitionedCall_1/PartitionedCall/cond_9/else/_1056/cond_9/range", "shape": [4], "dtype": "int32"}, {"name": "StatefulPartitionedCall/while/body/_71/while/PartitionedCall_1/PartitionedCall/cond_9/else/_1056/cond_9/GatherV2/axis", "shape": [], "dtype": "int32"}, {"name": "StatefulPartitionedCall/while/body/_71/while/PartitionedCall_1/PartitionedCall/cond_10/else/_1065/cond_10/range_1", "shape": [4], "dtype": "int32"}, {"name": "StatefulPartitionedCall/while/body/_71/while/PartitionedCall_1/PartitionedCall/cond_10/else/_1065/cond_10/GatherV2_1/axis", "shape": [], "dtype": "int32"}, {"name": "StatefulPartitionedCall/while/body/_71/while/PartitionedCall_1/PartitionedCall/cond_10/else/_1065/cond_10/range", "shape": [4], "dtype": "int32"}, {"name": "StatefulPartitionedCall/while/body/_71/while/PartitionedCall_1/PartitionedCall/cond_10/else/_1065/cond_10/GatherV2/axis", "shape": [], "dtype": "int32"}, {"name": "StatefulPartitionedCall/while/body/_71/while/PartitionedCall_1/PartitionedCall/cond_11/else/_1074/cond_11/range_1", "shape": [4], "dtype": "int32"}, {"name": "StatefulPartitionedCall/while/body/_71/while/PartitionedCall_1/PartitionedCall/cond_11/else/_1074/cond_11/GatherV2_1/axis", "shape": [], "dtype": "int32"}, {"name": "StatefulPartitionedCall/while/body/_71/while/PartitionedCall_1/PartitionedCall/cond_11/else/_1074/cond_11/range", "shape": [4], "dtype": "int32"}, {"name": "StatefulPartitionedCall/while/body/_71/while/PartitionedCall_1/PartitionedCall/cond_11/else/_1074/cond_11/GatherV2/axis", "shape": [], "dtype": "int32"}, {"name": "StatefulPartitionedCall/while/body/_71/while/PartitionedCall_1/PartitionedCall/cond_12/else/_1083/cond_12/range_1", "shape": [4], "dtype": "int32"}, {"name": "StatefulPartitionedCall/while/body/_71/while/PartitionedCall_1/PartitionedCall/cond_12/else/_1083/cond_12/GatherV2_1/axis", "shape": [], "dtype": "int32"}, {"name": "StatefulPartitionedCall/while/body/_71/while/PartitionedCall_1/PartitionedCall/cond_12/else/_1083/cond_12/range", "shape": [4], "dtype": "int32"}, {"name": "StatefulPartitionedCall/while/body/_71/while/PartitionedCall_1/PartitionedCall/cond_12/else/_1083/cond_12/GatherV2/axis", "shape": [], "dtype": "int32"}, {"name": "StatefulPartitionedCall/while/body/_71/while/PartitionedCall/PartitionedCall/cond/else/_858/cond/range_1", "shape": [4], "dtype": "int32"}, {"name": "StatefulPartitionedCall/while/body/_71/while/PartitionedCall/PartitionedCall/cond/else/_858/cond/GatherV2_1/axis", "shape": [], "dtype": "int32"}, {"name": "StatefulPartitionedCall/while/body/_71/while/PartitionedCall/PartitionedCall/cond/else/_858/cond/range", "shape": [4], "dtype": "int32"}, {"name": "StatefulPartitionedCall/while/body/_71/while/PartitionedCall/PartitionedCall/cond/else/_858/cond/GatherV2/axis", "shape": [], "dtype": "int32"}, {"name": "StatefulPartitionedCall/while/body/_71/while/PartitionedCall/PartitionedCall/cond_1/else/_867/cond_1/range_1", "shape": [4], "dtype": "int32"}, {"name": "StatefulPartitionedCall/while/body/_71/while/PartitionedCall/PartitionedCall/cond_1/else/_867/cond_1/GatherV2_1/axis", "shape": [], "dtype": "int32"}, {"name": "StatefulPartitionedCall/while/body/_71/while/PartitionedCall/PartitionedCall/cond_1/else/_867/cond_1/range", "shape": [4], "dtype": "int32"}, {"name": "StatefulPartitionedCall/while/body/_71/while/PartitionedCall/PartitionedCall/cond_1/else/_867/cond_1/GatherV2/axis", "shape": [], "dtype": "int32"}, {"name": "StatefulPartitionedCall/while/body/_71/while/PartitionedCall/PartitionedCall/cond_2/else/_876/cond_2/range_1", "shape": [4], "dtype": "int32"}, {"name": "StatefulPartitionedCall/while/body/_71/while/PartitionedCall/PartitionedCall/cond_2/else/_876/cond_2/GatherV2_1/axis", "shape": [], "dtype": "int32"}, {"name": "StatefulPartitionedCall/while/body/_71/while/PartitionedCall/PartitionedCall/cond_2/else/_876/cond_2/range", "shape": [4], "dtype": "int32"}, {"name": "StatefulPartitionedCall/while/body/_71/while/PartitionedCall/PartitionedCall/cond_2/else/_876/cond_2/GatherV2/axis", "shape": [], "dtype": "int32"}, {"name": "StatefulPartitionedCall/while/body/_71/while/PartitionedCall/PartitionedCall/cond_3/else/_885/cond_3/range_1", "shape": [4], "dtype": "int32"}, {"name": "StatefulPartitionedCall/while/body/_71/while/PartitionedCall/PartitionedCall/cond_3/else/_885/cond_3/GatherV2_1/axis", "shape": [], "dtype": "int32"}, {"name": "StatefulPartitionedCall/while/body/_71/while/PartitionedCall/PartitionedCall/cond_3/else/_885/cond_3/range", "shape": [4], "dtype": "int32"}, {"name": "StatefulPartitionedCall/while/body/_71/while/PartitionedCall/PartitionedCall/cond_3/else/_885/cond_3/GatherV2/axis", "shape": [], "dtype": "int32"}, {"name": "StatefulPartitionedCall/while/body/_71/while/PartitionedCall/PartitionedCall/cond_4/else/_894/cond_4/range_1", "shape": [4], "dtype": "int32"}, {"name": "StatefulPartitionedCall/while/body/_71/while/PartitionedCall/PartitionedCall/cond_4/else/_894/cond_4/GatherV2_1/axis", "shape": [], "dtype": "int32"}, {"name": "StatefulPartitionedCall/while/body/_71/while/PartitionedCall/PartitionedCall/cond_4/else/_894/cond_4/range", "shape": [4], "dtype": "int32"}, {"name": "StatefulPartitionedCall/while/body/_71/while/PartitionedCall/PartitionedCall/cond_4/else/_894/cond_4/GatherV2/axis", "shape": [], "dtype": "int32"}, {"name": "StatefulPartitionedCall/while/body/_71/while/PartitionedCall/PartitionedCall/cond_5/else/_903/cond_5/range_1", "shape": [4], "dtype": "int32"}, {"name": "StatefulPartitionedCall/while/body/_71/while/PartitionedCall/PartitionedCall/cond_5/else/_903/cond_5/GatherV2_1/axis", "shape": [], "dtype": "int32"}, {"name": "StatefulPartitionedCall/while/body/_71/while/PartitionedCall/PartitionedCall/cond_5/else/_903/cond_5/range", "shape": [4], "dtype": "int32"}, {"name": "StatefulPartitionedCall/while/body/_71/while/PartitionedCall/PartitionedCall/cond_5/else/_903/cond_5/GatherV2/axis", "shape": [], "dtype": "int32"}, {"name": "StatefulPartitionedCall/while/body/_71/while/PartitionedCall/PartitionedCall/cond_6/else/_912/cond_6/range_1", "shape": [4], "dtype": "int32"}, {"name": "StatefulPartitionedCall/while/body/_71/while/PartitionedCall/PartitionedCall/cond_6/else/_912/cond_6/GatherV2_1/axis", "shape": [], "dtype": "int32"}, {"name": "StatefulPartitionedCall/while/body/_71/while/PartitionedCall/PartitionedCall/cond_6/else/_912/cond_6/range", "shape": [4], "dtype": "int32"}, {"name": "StatefulPartitionedCall/while/body/_71/while/PartitionedCall/PartitionedCall/cond_6/else/_912/cond_6/GatherV2/axis", "shape": [], "dtype": "int32"}, {"name": "StatefulPartitionedCall/while/body/_71/while/PartitionedCall/PartitionedCall/cond_7/else/_921/cond_7/range_1", "shape": [4], "dtype": "int32"}, {"name": "StatefulPartitionedCall/while/body/_71/while/PartitionedCall/PartitionedCall/cond_7/else/_921/cond_7/GatherV2_1/axis", "shape": [], "dtype": "int32"}, {"name": "StatefulPartitionedCall/while/body/_71/while/PartitionedCall/PartitionedCall/cond_7/else/_921/cond_7/range", "shape": [4], "dtype": "int32"}, {"name": "StatefulPartitionedCall/while/body/_71/while/PartitionedCall/PartitionedCall/cond_7/else/_921/cond_7/GatherV2/axis", "shape": [], "dtype": "int32"}, {"name": "StatefulPartitionedCall/while/body/_71/while/PartitionedCall/PartitionedCall/cond_8/else/_930/cond_8/range_1", "shape": [4], "dtype": "int32"}, {"name": "StatefulPartitionedCall/while/body/_71/while/PartitionedCall/PartitionedCall/cond_8/else/_930/cond_8/GatherV2_1/axis", "shape": [], "dtype": "int32"}, {"name": "StatefulPartitionedCall/while/body/_71/while/PartitionedCall/PartitionedCall/cond_8/else/_930/cond_8/range", "shape": [4], "dtype": "int32"}, {"name": "StatefulPartitionedCall/while/body/_71/while/PartitionedCall/PartitionedCall/cond_8/else/_930/cond_8/GatherV2/axis", "shape": [], "dtype": "int32"}, {"name": "StatefulPartitionedCall/while/body/_71/while/PartitionedCall/PartitionedCall/cond_9/else/_939/cond_9/range_1", "shape": [4], "dtype": "int32"}, {"name": "StatefulPartitionedCall/while/body/_71/while/PartitionedCall/PartitionedCall/cond_9/else/_939/cond_9/GatherV2_1/axis", "shape": [], "dtype": "int32"}, {"name": "StatefulPartitionedCall/while/body/_71/while/PartitionedCall/PartitionedCall/cond_9/else/_939/cond_9/range", "shape": [4], "dtype": "int32"}, {"name": "StatefulPartitionedCall/while/body/_71/while/PartitionedCall/PartitionedCall/cond_9/else/_939/cond_9/GatherV2/axis", "shape": [], "dtype": "int32"}, {"name": "StatefulPartitionedCall/while/body/_71/while/PartitionedCall/PartitionedCall/cond_10/else/_948/cond_10/range_1", "shape": [4], "dtype": "int32"}, {"name": "StatefulPartitionedCall/while/body/_71/while/PartitionedCall/PartitionedCall/cond_10/else/_948/cond_10/GatherV2_1/axis", "shape": [], "dtype": "int32"}, {"name": "StatefulPartitionedCall/while/body/_71/while/PartitionedCall/PartitionedCall/cond_10/else/_948/cond_10/range", "shape": [4], "dtype": "int32"}, {"name": "StatefulPartitionedCall/while/body/_71/while/PartitionedCall/PartitionedCall/cond_10/else/_948/cond_10/GatherV2/axis", "shape": [], "dtype": "int32"}, {"name": "StatefulPartitionedCall/while/body/_71/while/PartitionedCall/PartitionedCall/cond_11/else/_957/cond_11/range_1", "shape": [4], "dtype": "int32"}, {"name": "StatefulPartitionedCall/while/body/_71/while/PartitionedCall/PartitionedCall/cond_11/else/_957/cond_11/GatherV2_1/axis", "shape": [], "dtype": "int32"}, {"name": "StatefulPartitionedCall/while/body/_71/while/PartitionedCall/PartitionedCall/cond_11/else/_957/cond_11/range", "shape": [4], "dtype": "int32"}, {"name": "StatefulPartitionedCall/while/body/_71/while/PartitionedCall/PartitionedCall/cond_11/else/_957/cond_11/GatherV2/axis", "shape": [], "dtype": "int32"}, {"name": "StatefulPartitionedCall/while/body/_71/while/PartitionedCall/PartitionedCall/cond_12/else/_966/cond_12/range_1", "shape": [4], "dtype": "int32"}, {"name": "StatefulPartitionedCall/while/body/_71/while/PartitionedCall/PartitionedCall/cond_12/else/_966/cond_12/GatherV2_1/axis", "shape": [], "dtype": "int32"}, {"name": "StatefulPartitionedCall/while/body/_71/while/PartitionedCall/PartitionedCall/cond_12/else/_966/cond_12/range", "shape": [4], "dtype": "int32"}, {"name": "StatefulPartitionedCall/while/body/_71/while/PartitionedCall/PartitionedCall/cond_12/else/_966/cond_12/GatherV2/axis", "shape": [], "dtype": "int32"}, {"name": "StatefulPartitionedCall/while/body/_71/while/PartitionedCall_2/PartitionedCall/cond/else/_1092/cond/range_1", "shape": [4], "dtype": "int32"}, {"name": "StatefulPartitionedCall/while/body/_71/while/PartitionedCall_2/PartitionedCall/cond/else/_1092/cond/GatherV2_1/axis", "shape": [], "dtype": "int32"}, {"name": "StatefulPartitionedCall/while/body/_71/while/PartitionedCall_2/PartitionedCall/cond/else/_1092/cond/range", "shape": [4], "dtype": "int32"}, {"name": "StatefulPartitionedCall/while/body/_71/while/PartitionedCall_2/PartitionedCall/cond/else/_1092/cond/GatherV2/axis", "shape": [], "dtype": "int32"}, {"name": "StatefulPartitionedCall/while/body/_71/while/PartitionedCall_3/PartitionedCall/cond/else/_1101/cond/range_1", "shape": [4], "dtype": "int32"}, {"name": "StatefulPartitionedCall/while/body/_71/while/PartitionedCall_3/PartitionedCall/cond/else/_1101/cond/GatherV2_1/axis", "shape": [], "dtype": "int32"}, {"name": "StatefulPartitionedCall/while/body/_71/while/PartitionedCall_3/PartitionedCall/cond/else/_1101/cond/range", "shape": [4], "dtype": "int32"}, {"name": "StatefulPartitionedCall/while/body/_71/while/PartitionedCall_3/PartitionedCall/cond/else/_1101/cond/GatherV2/axis", "shape": [], "dtype": "int32"}, {"name": "StatefulPartitionedCall/while/body/_71/while/PartitionedCall_3/PartitionedCall/cond_1/else/_1110/cond_1/range_1", "shape": [4], "dtype": "int32"}, {"name": "StatefulPartitionedCall/while/body/_71/while/PartitionedCall_3/PartitionedCall/cond_1/else/_1110/cond_1/GatherV2_1/axis", "shape": [], "dtype": "int32"}, {"name": "StatefulPartitionedCall/while/body/_71/while/PartitionedCall_3/PartitionedCall/cond_1/else/_1110/cond_1/range", "shape": [4], "dtype": "int32"}, {"name": "StatefulPartitionedCall/while/body/_71/while/PartitionedCall_3/PartitionedCall/cond_1/else/_1110/cond_1/GatherV2/axis", "shape": [], "dtype": "int32"}, {"name": "StatefulPartitionedCall/while/body/_71/while/PartitionedCall_3/PartitionedCall/cond_2/else/_1119/cond_2/range_1", "shape": [4], "dtype": "int32"}, {"name": "StatefulPartitionedCall/while/body/_71/while/PartitionedCall_3/PartitionedCall/cond_2/else/_1119/cond_2/GatherV2_1/axis", "shape": [], "dtype": "int32"}, {"name": "StatefulPartitionedCall/while/body/_71/while/PartitionedCall_3/PartitionedCall/cond_2/else/_1119/cond_2/range", "shape": [4], "dtype": "int32"}, {"name": "StatefulPartitionedCall/while/body/_71/while/PartitionedCall_3/PartitionedCall/cond_2/else/_1119/cond_2/GatherV2/axis", "shape": [], "dtype": "int32"}, {"name": "StatefulPartitionedCall/while/body/_71/while/PartitionedCall_3/PartitionedCall/cond_3/else/_1128/cond_3/range_1", "shape": [4], "dtype": "int32"}, {"name": "StatefulPartitionedCall/while/body/_71/while/PartitionedCall_3/PartitionedCall/cond_3/else/_1128/cond_3/GatherV2_1/axis", "shape": [], "dtype": "int32"}, {"name": "StatefulPartitionedCall/while/body/_71/while/PartitionedCall_3/PartitionedCall/cond_3/else/_1128/cond_3/range", "shape": [4], "dtype": "int32"}, {"name": "StatefulPartitionedCall/while/body/_71/while/PartitionedCall_3/PartitionedCall/cond_3/else/_1128/cond_3/GatherV2/axis", "shape": [], "dtype": "int32"}, {"name": "StatefulPartitionedCall/while/body/_71/while/PartitionedCall_3/PartitionedCall/cond_4/else/_1137/cond_4/range_1", "shape": [4], "dtype": "int32"}, {"name": "StatefulPartitionedCall/while/body/_71/while/PartitionedCall_3/PartitionedCall/cond_4/else/_1137/cond_4/GatherV2_1/axis", "shape": [], "dtype": "int32"}, {"name": "StatefulPartitionedCall/while/body/_71/while/PartitionedCall_3/PartitionedCall/cond_4/else/_1137/cond_4/range", "shape": [4], "dtype": "int32"}, {"name": "StatefulPartitionedCall/while/body/_71/while/PartitionedCall_3/PartitionedCall/cond_4/else/_1137/cond_4/GatherV2/axis", "shape": [], "dtype": "int32"}, {"name": "StatefulPartitionedCall/while/body/_71/while/PartitionedCall_3/PartitionedCall/cond_5/else/_1146/cond_5/range_1", "shape": [4], "dtype": "int32"}, {"name": "StatefulPartitionedCall/while/body/_71/while/PartitionedCall_3/PartitionedCall/cond_5/else/_1146/cond_5/GatherV2_1/axis", "shape": [], "dtype": "int32"}, {"name": "StatefulPartitionedCall/while/body/_71/while/PartitionedCall_3/PartitionedCall/cond_5/else/_1146/cond_5/range", "shape": [4], "dtype": "int32"}, {"name": "StatefulPartitionedCall/while/body/_71/while/PartitionedCall_3/PartitionedCall/cond_5/else/_1146/cond_5/GatherV2/axis", "shape": [], "dtype": "int32"}, {"name": "StatefulPartitionedCall/while/body/_71/while/PartitionedCall_3/PartitionedCall/cond_6/else/_1155/cond_6/range_1", "shape": [4], "dtype": "int32"}, {"name": "StatefulPartitionedCall/while/body/_71/while/PartitionedCall_3/PartitionedCall/cond_6/else/_1155/cond_6/GatherV2_1/axis", "shape": [], "dtype": "int32"}, {"name": "StatefulPartitionedCall/while/body/_71/while/PartitionedCall_3/PartitionedCall/cond_6/else/_1155/cond_6/range", "shape": [4], "dtype": "int32"}, {"name": "StatefulPartitionedCall/while/body/_71/while/PartitionedCall_3/PartitionedCall/cond_6/else/_1155/cond_6/GatherV2/axis", "shape": [], "dtype": "int32"}, {"name": "StatefulPartitionedCall/while/body/_71/while/PartitionedCall_3/PartitionedCall/cond_7/else/_1164/cond_7/range_1", "shape": [4], "dtype": "int32"}, {"name": "StatefulPartitionedCall/while/body/_71/while/PartitionedCall_3/PartitionedCall/cond_7/else/_1164/cond_7/GatherV2_1/axis", "shape": [], "dtype": "int32"}, {"name": "StatefulPartitionedCall/while/body/_71/while/PartitionedCall_3/PartitionedCall/cond_7/else/_1164/cond_7/range", "shape": [4], "dtype": "int32"}, {"name": "StatefulPartitionedCall/while/body/_71/while/PartitionedCall_3/PartitionedCall/cond_7/else/_1164/cond_7/GatherV2/axis", "shape": [], "dtype": "int32"}, {"name": "StatefulPartitionedCall/while/body/_71/while/PartitionedCall_3/PartitionedCall/cond_8/else/_1173/cond_8/range_1", "shape": [4], "dtype": "int32"}, {"name": "StatefulPartitionedCall/while/body/_71/while/PartitionedCall_3/PartitionedCall/cond_8/else/_1173/cond_8/GatherV2_1/axis", "shape": [], "dtype": "int32"}, {"name": "StatefulPartitionedCall/while/body/_71/while/PartitionedCall_3/PartitionedCall/cond_8/else/_1173/cond_8/range", "shape": [4], "dtype": "int32"}, {"name": "StatefulPartitionedCall/while/body/_71/while/PartitionedCall_3/PartitionedCall/cond_8/else/_1173/cond_8/GatherV2/axis", "shape": [], "dtype": "int32"}]}]}